Model: "functional_1"
__________________________________________________________________________________________________
Layer (type)                    Output Shape         Param #     Connected to                     
==================================================================================================
ip_pet (InputLayer)             [(None, 512, 512, 6) 0                                            
__________________________________________________________________________________________________
rescaling_pet (Rescaling)       (None, 512, 512, 6)  0           ip_pet[0][0]                     
__________________________________________________________________________________________________
normalization_pet (Normalizatio (None, 512, 512, 6)  13          rescaling_pet[0][0]              
__________________________________________________________________________________________________
stem_conv_pad_pet (ZeroPadding2 (None, 513, 513, 6)  0           normalization_pet[0][0]          
__________________________________________________________________________________________________
stem_conv_pet (Conv2D)          (None, 256, 256, 48) 2592        stem_conv_pad_pet[0][0]          
__________________________________________________________________________________________________
stem_bn_pet (BatchNormalization (None, 256, 256, 48) 192         stem_conv_pet[0][0]              
__________________________________________________________________________________________________
stem_activation (Activation)    (None, 256, 256, 48) 0           stem_bn_pet[0][0]                
__________________________________________________________________________________________________
block1a_dwconv (DepthwiseConv2D (None, 256, 256, 48) 432         stem_activation[0][0]            
__________________________________________________________________________________________________
block1a_bn (BatchNormalization) (None, 256, 256, 48) 192         block1a_dwconv[0][0]             
__________________________________________________________________________________________________
block1a_activation (Activation) (None, 256, 256, 48) 0           block1a_bn[0][0]                 
__________________________________________________________________________________________________
block1a_se_squeeze (GlobalAvera (None, 48)           0           block1a_activation[0][0]         
__________________________________________________________________________________________________
block1a_se_reshape (Reshape)    (None, 1, 1, 48)     0           block1a_se_squeeze[0][0]         
__________________________________________________________________________________________________
block1a_se_reduce (Conv2D)      (None, 1, 1, 12)     588         block1a_se_reshape[0][0]         
__________________________________________________________________________________________________
block1a_se_expand (Conv2D)      (None, 1, 1, 48)     624         block1a_se_reduce[0][0]          
__________________________________________________________________________________________________
block1a_se_excite (Multiply)    (None, 256, 256, 48) 0           block1a_activation[0][0]         
                                                                 block1a_se_expand[0][0]          
__________________________________________________________________________________________________
block1a_project_conv (Conv2D)   (None, 256, 256, 24) 1152        block1a_se_excite[0][0]          
__________________________________________________________________________________________________
block1a_project_bn (BatchNormal (None, 256, 256, 24) 96          block1a_project_conv[0][0]       
__________________________________________________________________________________________________
block1b_dwconv (DepthwiseConv2D (None, 256, 256, 24) 216         block1a_project_bn[0][0]         
__________________________________________________________________________________________________
block1b_bn (BatchNormalization) (None, 256, 256, 24) 96          block1b_dwconv[0][0]             
__________________________________________________________________________________________________
block1b_activation (Activation) (None, 256, 256, 24) 0           block1b_bn[0][0]                 
__________________________________________________________________________________________________
block1b_se_squeeze (GlobalAvera (None, 24)           0           block1b_activation[0][0]         
__________________________________________________________________________________________________
block1b_se_reshape (Reshape)    (None, 1, 1, 24)     0           block1b_se_squeeze[0][0]         
__________________________________________________________________________________________________
block1b_se_reduce (Conv2D)      (None, 1, 1, 6)      150         block1b_se_reshape[0][0]         
__________________________________________________________________________________________________
block1b_se_expand (Conv2D)      (None, 1, 1, 24)     168         block1b_se_reduce[0][0]          
__________________________________________________________________________________________________
block1b_se_excite (Multiply)    (None, 256, 256, 24) 0           block1b_activation[0][0]         
                                                                 block1b_se_expand[0][0]          
__________________________________________________________________________________________________
block1b_project_conv (Conv2D)   (None, 256, 256, 24) 576         block1b_se_excite[0][0]          
__________________________________________________________________________________________________
block1b_project_bn (BatchNormal (None, 256, 256, 24) 96          block1b_project_conv[0][0]       
__________________________________________________________________________________________________
block1b_drop (Dropout)          (None, 256, 256, 24) 0           block1b_project_bn[0][0]         
__________________________________________________________________________________________________
block1b_add (Add)               (None, 256, 256, 24) 0           block1b_drop[0][0]               
                                                                 block1a_project_bn[0][0]         
__________________________________________________________________________________________________
block2a_expand_conv (Conv2D)    (None, 256, 256, 144 3456        block1b_add[0][0]                
__________________________________________________________________________________________________
…
block2a_dwconv (DepthwiseConv2D (None, 128, 128, 144 1296        block2a_dwconv_pad[0][0]         
__________________________________________________________________________________________________
block2a_bn (BatchNormalization) (None, 128, 128, 144 576         block2a_dwconv[0][0]             
__________________________________________________________________________________________________
block2a_activation (Activation) (None, 128, 128, 144 0           block2a_bn[0][0]                 
__________________________________________________________________________________________________
block2a_se_squeeze (GlobalAvera (None, 144)          0           block2a_activation[0][0]         
__________________________________________________________________________________________________
block2a_se_reshape (Reshape)    (None, 1, 1, 144)    0           block2a_se_squeeze[0][0]         
__________________________________________________________________________________________________
block2a_se_reduce (Conv2D)      (None, 1, 1, 6)      870         block2a_se_reshape[0][0]         
__________________________________________________________________________________________________
block2a_se_expand (Conv2D)      (None, 1, 1, 144)    1008        block2a_se_reduce[0][0]          
__________________________________________________________________________________________________
block2a_se_excite (Multiply)    (None, 128, 128, 144 0           block2a_activation[0][0]         
                                                                 block2a_se_expand[0][0]          
__________________________________________________________________________________________________
block2a_project_conv (Conv2D)   (None, 128, 128, 32) 4608        block2a_se_excite[0][0]          
__________________________________________________________________________________________________
block2a_project_bn (BatchNormal (None, 128, 128, 32) 128         block2a_project_conv[0][0]       
__________________________________________________________________________________________________
block2b_expand_conv (Conv2D)    (None, 128, 128, 192 6144        block2a_project_bn[0][0]         
__________________________________________________________________________________________________
block2b_expand_bn (BatchNormali (None, 128, 128, 192 768         block2b_expand_conv[0][0]        
…
block2b_dwconv (DepthwiseConv2D (None, 128, 128, 192 1728        block2b_expand_activation[0][0]  
__________________________________________________________________________________________________
block2b_bn (BatchNormalization) (None, 128, 128, 192 768         block2b_dwconv[0][0]             
__________________________________________________________________________________________________
block2b_activation (Activation) (None, 128, 128, 192 0           block2b_bn[0][0]                 
__________________________________________________________________________________________________
block2b_se_squeeze (GlobalAvera (None, 192)          0           block2b_activation[0][0]         
__________________________________________________________________________________________________
block2b_se_reshape (Reshape)    (None, 1, 1, 192)    0           block2b_se_squeeze[0][0]         
__________________________________________________________________________________________________
block2b_se_reduce (Conv2D)      (None, 1, 1, 8)      1544        block2b_se_reshape[0][0]         
__________________________________________________________________________________________________
block2b_se_expand (Conv2D)      (None, 1, 1, 192)    1728        block2b_se_reduce[0][0]          
__________________________________________________________________________________________________
block2b_se_excite (Multiply)    (None, 128, 128, 192 0           block2b_activation[0][0]         
                                                                 block2b_se_expand[0][0]          
__________________________________________________________________________________________________
block2b_project_conv (Conv2D)   (None, 128, 128, 32) 6144        block2b_se_excite[0][0]          
__________________________________________________________________________________________________
block2b_project_bn (BatchNormal (None, 128, 128, 32) 128         block2b_project_conv[0][0]       
__________________________________________________________________________________________________
block2b_drop (Dropout)          (None, 128, 128, 32) 0           block2b_project_bn[0][0]         
__________________________________________________________________________________________________
block2b_add (Add)               (None, 128, 128, 32) 0           block2b_drop[0][0]               
                                                                 block2a_project_bn[0][0]         
__________________________________________________________________________________________________
block2c_expand_conv (Conv2D)    (None, 128, 128, 192 6144        block2b_add[0][0]                
__________________________________________________________________________________________________
…
block3a_expand_bn (BatchNormali (None, 128, 128, 192 768         block3a_expand_conv[0][0]        
__________________________________________________________________________________________________
block3a_expand_activation (Acti (None, 128, 128, 192 0           block3a_expand_bn[0][0]          
__________________________________________________________________________________________________
block3a_dwconv_pad (ZeroPadding (None, 131, 131, 192 0           block3a_expand_activation[0][0]  
__________________________________________________________________________________________________
block3a_dwconv (DepthwiseConv2D (None, 64, 64, 192)  4800        block3a_dwconv_pad[0][0]         
__________________________________________________________________________________________________
block3a_bn (BatchNormalization) (None, 64, 64, 192)  768         block3a_dwconv[0][0]             
__________________________________________________________________________________________________
block3a_activation (Activation) (None, 64, 64, 192)  0           block3a_bn[0][0]                 
__________________________________________________________________________________________________
block3a_se_squeeze (GlobalAvera (None, 192)          0           block3a_activation[0][0]         
__________________________________________________________________________________________________
block3a_se_reshape (Reshape)    (None, 1, 1, 192)    0           block3a_se_squeeze[0][0]         
__________________________________________________________________________________________________
block3a_se_reduce (Conv2D)      (None, 1, 1, 8)      1544        block3a_se_reshape[0][0]         
__________________________________________________________________________________________________
block3a_se_expand (Conv2D)      (None, 1, 1, 192)    1728        block3a_se_reduce[0][0]          
__________________________________________________________________________________________________
block3a_se_excite (Multiply)    (None, 64, 64, 192)  0           block3a_activation[0][0]         
                                                                 block3a_se_expand[0][0]          
__________________________________________________________________________________________________
block3a_project_conv (Conv2D)   (None, 64, 64, 56)   10752       block3a_se_excite[0][0]          
__________________________________________________________________________________________________
block3a_project_bn (BatchNormal (None, 64, 64, 56)   224         block3a_project_conv[0][0]       
__________________________________________________________________________________________________
block3b_expand_conv (Conv2D)    (None, 64, 64, 336)  18816       block3a_project_bn[0][0]         
__________________________________________________________________________________________________
block3b_expand_bn (BatchNormali (None, 64, 64, 336)  1344        block3b_expand_conv[0][0]        
__________________________________________________________________________________________________
block3b_expand_activation (Acti (None, 64, 64, 336)  0           block3b_expand_bn[0][0]          
__________________________________________________________________________________________________
block3b_dwconv (DepthwiseConv2D (None, 64, 64, 336)  8400        block3b_expand_activation[0][0]  
__________________________________________________________________________________________________
block3b_bn (BatchNormalization) (None, 64, 64, 336)  1344        block3b_dwconv[0][0]             
__________________________________________________________________________________________________
block3b_activation (Activation) (None, 64, 64, 336)  0           block3b_bn[0][0]                 
__________________________________________________________________________________________________
block3b_se_squeeze (GlobalAvera (None, 336)          0           block3b_activation[0][0]         
__________________________________________________________________________________________________
block3b_se_reshape (Reshape)    (None, 1, 1, 336)    0           block3b_se_squeeze[0][0]         
__________________________________________________________________________________________________
block3b_se_reduce (Conv2D)      (None, 1, 1, 14)     4718        block3b_se_reshape[0][0]         
__________________________________________________________________________________________________
block3b_se_expand (Conv2D)      (None, 1, 1, 336)    5040        block3b_se_reduce[0][0]          
__________________________________________________________________________________________________
block3b_se_excite (Multiply)    (None, 64, 64, 336)  0           block3b_activation[0][0]         
                                                                 block3b_se_expand[0][0]          
__________________________________________________________________________________________________
block3b_project_conv (Conv2D)   (None, 64, 64, 56)   18816       block3b_se_excite[0][0]          
__________________________________________________________________________________________________
block3b_project_bn (BatchNormal (None, 64, 64, 56)   224         block3b_project_conv[0][0]       
__________________________________________________________________________________________________
block3b_drop (Dropout)          (None, 64, 64, 56)   0           block3b_project_bn[0][0]         
__________________________________________________________________________________________________
block3b_add (Add)               (None, 64, 64, 56)   0           block3b_drop[0][0]               
                                                                 block3a_project_bn[0][0]         
__________________________________________________________________________________________________
block3c_expand_conv (Conv2D)    (None, 64, 64, 336)  18816       block3b_add[0][0]                
__________________________________________________________________________________________________
block3c_expand_bn (BatchNormali (None, 64, 64, 336)  1344        block3c_expand_conv[0][0]        
__________________________________________________________________________________________________
block3c_expand_activation (Acti (None, 64, 64, 336)  0           block3c_expand_bn[0][0]          
__________________________________________________________________________________________________
block3c_dwconv (DepthwiseConv2D (None, 64, 64, 336)  8400        block3c_expand_activation[0][0]  
__________________________________________________________________________________________________
block3c_bn (BatchNormalization) (None, 64, 64, 336)  1344        block3c_dwconv[0][0]             
__________________________________________________________________________________________________
block3c_activation (Activation) (None, 64, 64, 336)  0           block3c_bn[0][0]                 
__________________________________________________________________________________________________
block3c_se_squeeze (GlobalAvera (None, 336)          0           block3c_activation[0][0]         
__________________________________________________________________________________________________
block3c_se_reshape (Reshape)    (None, 1, 1, 336)    0           block3c_se_squeeze[0][0]         
__________________________________________________________________________________________________
block3c_se_reduce (Conv2D)      (None, 1, 1, 14)     4718        block3c_se_reshape[0][0]         
__________________________________________________________________________________________________
block3c_se_expand (Conv2D)      (None, 1, 1, 336)    5040        block3c_se_reduce[0][0]          
__________________________________________________________________________________________________
block3c_se_excite (Multiply)    (None, 64, 64, 336)  0           block3c_activation[0][0]         
                                                                 block3c_se_expand[0][0]          
__________________________________________________________________________________________________
block3c_project_conv (Conv2D)   (None, 64, 64, 56)   18816       block3c_se_excite[0][0]          
__________________________________________________________________________________________________
block3c_project_bn (BatchNormal (None, 64, 64, 56)   224         block3c_project_conv[0][0]       
__________________________________________________________________________________________________
block3c_drop (Dropout)          (None, 64, 64, 56)   0           block3c_project_bn[0][0]         
__________________________________________________________________________________________________
block3c_add (Add)               (None, 64, 64, 56)   0           block3c_drop[0][0]               
                                                                 block3b_add[0][0]                
__________________________________________________________________________________________________
block3d_expand_conv (Conv2D)    (None, 64, 64, 336)  18816       block3c_add[0][0]                
__________________________________________________________________________________________________
block3d_expand_bn (BatchNormali (None, 64, 64, 336)  1344        block3d_expand_conv[0][0]        
__________________________________________________________________________________________________
block3d_expand_activation (Acti (None, 64, 64, 336)  0           block3d_expand_bn[0][0]          
__________________________________________________________________________________________________
block3d_dwconv (DepthwiseConv2D (None, 64, 64, 336)  8400        block3d_expand_activation[0][0]  
__________________________________________________________________________________________________
block3d_bn (BatchNormalization) (None, 64, 64, 336)  1344        block3d_dwconv[0][0]             
__________________________________________________________________________________________________
block3d_activation (Activation) (None, 64, 64, 336)  0           block3d_bn[0][0]                 
__________________________________________________________________________________________________
block3d_se_squeeze (GlobalAvera (None, 336)          0           block3d_activation[0][0]         
__________________________________________________________________________________________________
block3d_se_reshape (Reshape)    (None, 1, 1, 336)    0           block3d_se_squeeze[0][0]         
__________________________________________________________________________________________________
block3d_se_reduce (Conv2D)      (None, 1, 1, 14)     4718        block3d_se_reshape[0][0]         
__________________________________________________________________________________________________
block3d_se_expand (Conv2D)      (None, 1, 1, 336)    5040        block3d_se_reduce[0][0]          
__________________________________________________________________________________________________
block3d_se_excite (Multiply)    (None, 64, 64, 336)  0           block3d_activation[0][0]         
                                                                 block3d_se_expand[0][0]          
__________________________________________________________________________________________________
block3d_project_conv (Conv2D)   (None, 64, 64, 56)   18816       block3d_se_excite[0][0]          
__________________________________________________________________________________________________
block3d_project_bn (BatchNormal (None, 64, 64, 56)   224         block3d_project_conv[0][0]       
__________________________________________________________________________________________________
block3d_drop (Dropout)          (None, 64, 64, 56)   0           block3d_project_bn[0][0]         
__________________________________________________________________________________________________
block3d_add (Add)               (None, 64, 64, 56)   0           block3d_drop[0][0]               
                                                                 block3c_add[0][0]                
__________________________________________________________________________________________________
block4a_expand_conv (Conv2D)    (None, 64, 64, 336)  18816       block3d_add[0][0]                
__________________________________________________________________________________________________
block4a_expand_bn (BatchNormali (None, 64, 64, 336)  1344        block4a_expand_conv[0][0]        
__________________________________________________________________________________________________
block4a_expand_activation (Acti (None, 64, 64, 336)  0           block4a_expand_bn[0][0]          
__________________________________________________________________________________________________
block4a_dwconv_pad (ZeroPadding (None, 65, 65, 336)  0           block4a_expand_activation[0][0]  
__________________________________________________________________________________________________
block4a_dwconv (DepthwiseConv2D (None, 32, 32, 336)  3024        block4a_dwconv_pad[0][0]         
__________________________________________________________________________________________________
block4a_bn (BatchNormalization) (None, 32, 32, 336)  1344        block4a_dwconv[0][0]             
__________________________________________________________________________________________________
block4a_activation (Activation) (None, 32, 32, 336)  0           block4a_bn[0][0]                 
__________________________________________________________________________________________________
block4a_se_squeeze (GlobalAvera (None, 336)          0           block4a_activation[0][0]         
__________________________________________________________________________________________________
block4a_se_reshape (Reshape)    (None, 1, 1, 336)    0           block4a_se_squeeze[0][0]         
__________________________________________________________________________________________________
block4a_se_reduce (Conv2D)      (None, 1, 1, 14)     4718        block4a_se_reshape[0][0]         
__________________________________________________________________________________________________
block4a_se_expand (Conv2D)      (None, 1, 1, 336)    5040        block4a_se_reduce[0][0]          
__________________________________________________________________________________________________
block4a_se_excite (Multiply)    (None, 32, 32, 336)  0           block4a_activation[0][0]         
                                                                 block4a_se_expand[0][0]          
__________________________________________________________________________________________________
block4a_project_conv (Conv2D)   (None, 32, 32, 112)  37632       block4a_se_excite[0][0]          
__________________________________________________________________________________________________
block4a_project_bn (BatchNormal (None, 32, 32, 112)  448         block4a_project_conv[0][0]       
__________________________________________________________________________________________________
block4b_expand_conv (Conv2D)    (None, 32, 32, 672)  75264       block4a_project_bn[0][0]         
__________________________________________________________________________________________________
block4b_expand_bn (BatchNormali (None, 32, 32, 672)  2688        block4b_expand_conv[0][0]        
__________________________________________________________________________________________________
block4b_expand_activation (Acti (None, 32, 32, 672)  0           block4b_expand_bn[0][0]          
__________________________________________________________________________________________________
block4b_dwconv (DepthwiseConv2D (None, 32, 32, 672)  6048        block4b_expand_activation[0][0]  
__________________________________________________________________________________________________
block4b_bn (BatchNormalization) (None, 32, 32, 672)  2688        block4b_dwconv[0][0]             
__________________________________________________________________________________________________
block4b_activation (Activation) (None, 32, 32, 672)  0           block4b_bn[0][0]                 
__________________________________________________________________________________________________
block4b_se_squeeze (GlobalAvera (None, 672)          0           block4b_activation[0][0]         
__________________________________________________________________________________________________
block4b_se_reshape (Reshape)    (None, 1, 1, 672)    0           block4b_se_squeeze[0][0]         
__________________________________________________________________________________________________
block4b_se_reduce (Conv2D)      (None, 1, 1, 28)     18844       block4b_se_reshape[0][0]         
__________________________________________________________________________________________________
block4b_se_expand (Conv2D)      (None, 1, 1, 672)    19488       block4b_se_reduce[0][0]          
__________________________________________________________________________________________________
block4b_se_excite (Multiply)    (None, 32, 32, 672)  0           block4b_activation[0][0]         
                                                                 block4b_se_expand[0][0]          
__________________________________________________________________________________________________
block4b_project_conv (Conv2D)   (None, 32, 32, 112)  75264       block4b_se_excite[0][0]          
__________________________________________________________________________________________________
block4b_project_bn (BatchNormal (None, 32, 32, 112)  448         block4b_project_conv[0][0]       
__________________________________________________________________________________________________
block4b_drop (Dropout)          (None, 32, 32, 112)  0           block4b_project_bn[0][0]         
__________________________________________________________________________________________________
block4b_add (Add)               (None, 32, 32, 112)  0           block4b_drop[0][0]               
                                                                 block4a_project_bn[0][0]         
__________________________________________________________________________________________________
block4c_expand_conv (Conv2D)    (None, 32, 32, 672)  75264       block4b_add[0][0]                
__________________________________________________________________________________________________
block4c_expand_bn (BatchNormali (None, 32, 32, 672)  2688        block4c_expand_conv[0][0]        
__________________________________________________________________________________________________
block4c_expand_activation (Acti (None, 32, 32, 672)  0           block4c_expand_bn[0][0]          
__________________________________________________________________________________________________
block4c_dwconv (DepthwiseConv2D (None, 32, 32, 672)  6048        block4c_expand_activation[0][0]  
__________________________________________________________________________________________________
block4c_bn (BatchNormalization) (None, 32, 32, 672)  2688        block4c_dwconv[0][0]             
__________________________________________________________________________________________________
block4c_activation (Activation) (None, 32, 32, 672)  0           block4c_bn[0][0]                 
__________________________________________________________________________________________________
block4c_se_squeeze (GlobalAvera (None, 672)          0           block4c_activation[0][0]         
__________________________________________________________________________________________________
block4c_se_reshape (Reshape)    (None, 1, 1, 672)    0           block4c_se_squeeze[0][0]         
__________________________________________________________________________________________________
block4c_se_reduce (Conv2D)      (None, 1, 1, 28)     18844       block4c_se_reshape[0][0]         
__________________________________________________________________________________________________
block4c_se_expand (Conv2D)      (None, 1, 1, 672)    19488       block4c_se_reduce[0][0]          
__________________________________________________________________________________________________
block4c_se_excite (Multiply)    (None, 32, 32, 672)  0           block4c_activation[0][0]         
                                                                 block4c_se_expand[0][0]          
__________________________________________________________________________________________________
block4c_project_conv (Conv2D)   (None, 32, 32, 112)  75264       block4c_se_excite[0][0]          
__________________________________________________________________________________________________
block4c_project_bn (BatchNormal (None, 32, 32, 112)  448         block4c_project_conv[0][0]       
__________________________________________________________________________________________________
block4c_drop (Dropout)          (None, 32, 32, 112)  0           block4c_project_bn[0][0]         
__________________________________________________________________________________________________
block4c_add (Add)               (None, 32, 32, 112)  0           block4c_drop[0][0]               
                                                                 block4b_add[0][0]                
__________________________________________________________________________________________________
block4d_expand_conv (Conv2D)    (None, 32, 32, 672)  75264       block4c_add[0][0]                
__________________________________________________________________________________________________
block4d_expand_bn (BatchNormali (None, 32, 32, 672)  2688        block4d_expand_conv[0][0]        
__________________________________________________________________________________________________
block4d_expand_activation (Acti (None, 32, 32, 672)  0           block4d_expand_bn[0][0]          
__________________________________________________________________________________________________
block4d_dwconv (DepthwiseConv2D (None, 32, 32, 672)  6048        block4d_expand_activation[0][0]  
__________________________________________________________________________________________________
block4d_bn (BatchNormalization) (None, 32, 32, 672)  2688        block4d_dwconv[0][0]             
__________________________________________________________________________________________________
block4d_activation (Activation) (None, 32, 32, 672)  0           block4d_bn[0][0]                 
__________________________________________________________________________________________________
block4d_se_squeeze (GlobalAvera (None, 672)          0           block4d_activation[0][0]         
__________________________________________________________________________________________________
block4d_se_reshape (Reshape)    (None, 1, 1, 672)    0           block4d_se_squeeze[0][0]         
__________________________________________________________________________________________________
block4d_se_reduce (Conv2D)      (None, 1, 1, 28)     18844       block4d_se_reshape[0][0]         
__________________________________________________________________________________________________
block4d_se_expand (Conv2D)      (None, 1, 1, 672)    19488       block4d_se_reduce[0][0]          
__________________________________________________________________________________________________
block4d_se_excite (Multiply)    (None, 32, 32, 672)  0           block4d_activation[0][0]         
                                                                 block4d_se_expand[0][0]          
__________________________________________________________________________________________________
block4d_project_conv (Conv2D)   (None, 32, 32, 112)  75264       block4d_se_excite[0][0]          
__________________________________________________________________________________________________
block4d_project_bn (BatchNormal (None, 32, 32, 112)  448         block4d_project_conv[0][0]       
__________________________________________________________________________________________________
block4d_drop (Dropout)          (None, 32, 32, 112)  0           block4d_project_bn[0][0]         
__________________________________________________________________________________________________
block4d_add (Add)               (None, 32, 32, 112)  0           block4d_drop[0][0]               
                                                                 block4c_add[0][0]                
__________________________________________________________________________________________________
block4e_expand_conv (Conv2D)    (None, 32, 32, 672)  75264       block4d_add[0][0]                
__________________________________________________________________________________________________
block4e_expand_bn (BatchNormali (None, 32, 32, 672)  2688        block4e_expand_conv[0][0]        
__________________________________________________________________________________________________
block4e_expand_activation (Acti (None, 32, 32, 672)  0           block4e_expand_bn[0][0]          
__________________________________________________________________________________________________
block4e_dwconv (DepthwiseConv2D (None, 32, 32, 672)  6048        block4e_expand_activation[0][0]  
__________________________________________________________________________________________________
block4e_bn (BatchNormalization) (None, 32, 32, 672)  2688        block4e_dwconv[0][0]             
__________________________________________________________________________________________________
block4e_activation (Activation) (None, 32, 32, 672)  0           block4e_bn[0][0]                 
__________________________________________________________________________________________________
block4e_se_squeeze (GlobalAvera (None, 672)          0           block4e_activation[0][0]         
__________________________________________________________________________________________________
block4e_se_reshape (Reshape)    (None, 1, 1, 672)    0           block4e_se_squeeze[0][0]         
__________________________________________________________________________________________________
block4e_se_reduce (Conv2D)      (None, 1, 1, 28)     18844       block4e_se_reshape[0][0]         
__________________________________________________________________________________________________
block4e_se_expand (Conv2D)      (None, 1, 1, 672)    19488       block4e_se_reduce[0][0]          
__________________________________________________________________________________________________
block4e_se_excite (Multiply)    (None, 32, 32, 672)  0           block4e_activation[0][0]         
                                                                 block4e_se_expand[0][0]          
__________________________________________________________________________________________________
block4e_project_conv (Conv2D)   (None, 32, 32, 112)  75264       block4e_se_excite[0][0]          
__________________________________________________________________________________________________
block4e_project_bn (BatchNormal (None, 32, 32, 112)  448         block4e_project_conv[0][0]       
__________________________________________________________________________________________________
block4e_drop (Dropout)          (None, 32, 32, 112)  0           block4e_project_bn[0][0]         
__________________________________________________________________________________________________
block4e_add (Add)               (None, 32, 32, 112)  0           block4e_drop[0][0]               
                                                                 block4d_add[0][0]                
__________________________________________________________________________________________________
block4f_expand_conv (Conv2D)    (None, 32, 32, 672)  75264       block4e_add[0][0]                
__________________________________________________________________________________________________
block4f_expand_bn (BatchNormali (None, 32, 32, 672)  2688        block4f_expand_conv[0][0]        
__________________________________________________________________________________________________
block4f_expand_activation (Acti (None, 32, 32, 672)  0           block4f_expand_bn[0][0]          
__________________________________________________________________________________________________
block4f_dwconv (DepthwiseConv2D (None, 32, 32, 672)  6048        block4f_expand_activation[0][0]  
__________________________________________________________________________________________________
block4f_bn (BatchNormalization) (None, 32, 32, 672)  2688        block4f_dwconv[0][0]             
__________________________________________________________________________________________________
block4f_activation (Activation) (None, 32, 32, 672)  0           block4f_bn[0][0]                 
__________________________________________________________________________________________________
block4f_se_squeeze (GlobalAvera (None, 672)          0           block4f_activation[0][0]         
__________________________________________________________________________________________________
block4f_se_reshape (Reshape)    (None, 1, 1, 672)    0           block4f_se_squeeze[0][0]         
__________________________________________________________________________________________________
block4f_se_reduce (Conv2D)      (None, 1, 1, 28)     18844       block4f_se_reshape[0][0]         
__________________________________________________________________________________________________
block4f_se_expand (Conv2D)      (None, 1, 1, 672)    19488       block4f_se_reduce[0][0]          
__________________________________________________________________________________________________
block4f_se_excite (Multiply)    (None, 32, 32, 672)  0           block4f_activation[0][0]         
                                                                 block4f_se_expand[0][0]          
__________________________________________________________________________________________________
block4f_project_conv (Conv2D)   (None, 32, 32, 112)  75264       block4f_se_excite[0][0]          
__________________________________________________________________________________________________
block4f_project_bn (BatchNormal (None, 32, 32, 112)  448         block4f_project_conv[0][0]       
__________________________________________________________________________________________________
block4f_drop (Dropout)          (None, 32, 32, 112)  0           block4f_project_bn[0][0]         
__________________________________________________________________________________________________
block4f_add (Add)               (None, 32, 32, 112)  0           block4f_drop[0][0]               
                                                                 block4e_add[0][0]                
__________________________________________________________________________________________________
block5a_expand_conv (Conv2D)    (None, 32, 32, 672)  75264       block4f_add[0][0]                
__________________________________________________________________________________________________
block5a_expand_bn (BatchNormali (None, 32, 32, 672)  2688        block5a_expand_conv[0][0]        
__________________________________________________________________________________________________
block5a_expand_activation (Acti (None, 32, 32, 672)  0           block5a_expand_bn[0][0]          
__________________________________________________________________________________________________
block5a_dwconv (DepthwiseConv2D (None, 32, 32, 672)  16800       block5a_expand_activation[0][0]  
__________________________________________________________________________________________________
block5a_bn (BatchNormalization) (None, 32, 32, 672)  2688        block5a_dwconv[0][0]             
__________________________________________________________________________________________________
block5a_activation (Activation) (None, 32, 32, 672)  0           block5a_bn[0][0]                 
__________________________________________________________________________________________________
block5a_se_squeeze (GlobalAvera (None, 672)          0           block5a_activation[0][0]         
__________________________________________________________________________________________________
block5a_se_reshape (Reshape)    (None, 1, 1, 672)    0           block5a_se_squeeze[0][0]         
__________________________________________________________________________________________________
block5a_se_reduce (Conv2D)      (None, 1, 1, 28)     18844       block5a_se_reshape[0][0]         
__________________________________________________________________________________________________
block5a_se_expand (Conv2D)      (None, 1, 1, 672)    19488       block5a_se_reduce[0][0]          
__________________________________________________________________________________________________
block5a_se_excite (Multiply)    (None, 32, 32, 672)  0           block5a_activation[0][0]         
                                                                 block5a_se_expand[0][0]          
__________________________________________________________________________________________________
block5a_project_conv (Conv2D)   (None, 32, 32, 160)  107520      block5a_se_excite[0][0]          
__________________________________________________________________________________________________
block5a_project_bn (BatchNormal (None, 32, 32, 160)  640         block5a_project_conv[0][0]       
__________________________________________________________________________________________________
block5b_expand_conv (Conv2D)    (None, 32, 32, 960)  153600      block5a_project_bn[0][0]         
__________________________________________________________________________________________________
block5b_expand_bn (BatchNormali (None, 32, 32, 960)  3840        block5b_expand_conv[0][0]        
__________________________________________________________________________________________________
block5b_expand_activation (Acti (None, 32, 32, 960)  0           block5b_expand_bn[0][0]          
__________________________________________________________________________________________________
block5b_dwconv (DepthwiseConv2D (None, 32, 32, 960)  24000       block5b_expand_activation[0][0]  
__________________________________________________________________________________________________
block5b_bn (BatchNormalization) (None, 32, 32, 960)  3840        block5b_dwconv[0][0]             
__________________________________________________________________________________________________
block5b_activation (Activation) (None, 32, 32, 960)  0           block5b_bn[0][0]                 
__________________________________________________________________________________________________
block5b_se_squeeze (GlobalAvera (None, 960)          0           block5b_activation[0][0]         
__________________________________________________________________________________________________
block5b_se_reshape (Reshape)    (None, 1, 1, 960)    0           block5b_se_squeeze[0][0]         
__________________________________________________________________________________________________
block5b_se_reduce (Conv2D)      (None, 1, 1, 40)     38440       block5b_se_reshape[0][0]         
__________________________________________________________________________________________________
block5b_se_expand (Conv2D)      (None, 1, 1, 960)    39360       block5b_se_reduce[0][0]          
__________________________________________________________________________________________________
block5b_se_excite (Multiply)    (None, 32, 32, 960)  0           block5b_activation[0][0]         
                                                                 block5b_se_expand[0][0]          
__________________________________________________________________________________________________
block5b_project_conv (Conv2D)   (None, 32, 32, 160)  153600      block5b_se_excite[0][0]          
__________________________________________________________________________________________________
block5b_project_bn (BatchNormal (None, 32, 32, 160)  640         block5b_project_conv[0][0]       
__________________________________________________________________________________________________
block5b_drop (Dropout)          (None, 32, 32, 160)  0           block5b_project_bn[0][0]         
__________________________________________________________________________________________________
block5b_add (Add)               (None, 32, 32, 160)  0           block5b_drop[0][0]               
                                                                 block5a_project_bn[0][0]         
__________________________________________________________________________________________________
block5c_expand_conv (Conv2D)    (None, 32, 32, 960)  153600      block5b_add[0][0]                
__________________________________________________________________________________________________
block5c_expand_bn (BatchNormali (None, 32, 32, 960)  3840        block5c_expand_conv[0][0]        
__________________________________________________________________________________________________
block5c_expand_activation (Acti (None, 32, 32, 960)  0           block5c_expand_bn[0][0]          
__________________________________________________________________________________________________
block5c_dwconv (DepthwiseConv2D (None, 32, 32, 960)  24000       block5c_expand_activation[0][0]  
__________________________________________________________________________________________________
block5c_bn (BatchNormalization) (None, 32, 32, 960)  3840        block5c_dwconv[0][0]             
__________________________________________________________________________________________________
block5c_activation (Activation) (None, 32, 32, 960)  0           block5c_bn[0][0]                 
__________________________________________________________________________________________________
block5c_se_squeeze (GlobalAvera (None, 960)          0           block5c_activation[0][0]         
__________________________________________________________________________________________________
block5c_se_reshape (Reshape)    (None, 1, 1, 960)    0           block5c_se_squeeze[0][0]         
__________________________________________________________________________________________________
block5c_se_reduce (Conv2D)      (None, 1, 1, 40)     38440       block5c_se_reshape[0][0]         
__________________________________________________________________________________________________
block5c_se_expand (Conv2D)      (None, 1, 1, 960)    39360       block5c_se_reduce[0][0]          
__________________________________________________________________________________________________
block5c_se_excite (Multiply)    (None, 32, 32, 960)  0           block5c_activation[0][0]         
                                                                 block5c_se_expand[0][0]          
__________________________________________________________________________________________________
block5c_project_conv (Conv2D)   (None, 32, 32, 160)  153600      block5c_se_excite[0][0]          
__________________________________________________________________________________________________
block5c_project_bn (BatchNormal (None, 32, 32, 160)  640         block5c_project_conv[0][0]       
__________________________________________________________________________________________________
block5c_drop (Dropout)          (None, 32, 32, 160)  0           block5c_project_bn[0][0]         
__________________________________________________________________________________________________
block5c_add (Add)               (None, 32, 32, 160)  0           block5c_drop[0][0]               
                                                                 block5b_add[0][0]                
__________________________________________________________________________________________________
block5d_expand_conv (Conv2D)    (None, 32, 32, 960)  153600      block5c_add[0][0]                
__________________________________________________________________________________________________
block5d_expand_bn (BatchNormali (None, 32, 32, 960)  3840        block5d_expand_conv[0][0]        
__________________________________________________________________________________________________
block5d_expand_activation (Acti (None, 32, 32, 960)  0           block5d_expand_bn[0][0]          
__________________________________________________________________________________________________
block5d_dwconv (DepthwiseConv2D (None, 32, 32, 960)  24000       block5d_expand_activation[0][0]  
__________________________________________________________________________________________________
block5d_bn (BatchNormalization) (None, 32, 32, 960)  3840        block5d_dwconv[0][0]             
__________________________________________________________________________________________________
block5d_activation (Activation) (None, 32, 32, 960)  0           block5d_bn[0][0]                 
__________________________________________________________________________________________________
block5d_se_squeeze (GlobalAvera (None, 960)          0           block5d_activation[0][0]         
__________________________________________________________________________________________________
block5d_se_reshape (Reshape)    (None, 1, 1, 960)    0           block5d_se_squeeze[0][0]         
__________________________________________________________________________________________________
block5d_se_reduce (Conv2D)      (None, 1, 1, 40)     38440       block5d_se_reshape[0][0]         
__________________________________________________________________________________________________
block5d_se_expand (Conv2D)      (None, 1, 1, 960)    39360       block5d_se_reduce[0][0]          
__________________________________________________________________________________________________
block5d_se_excite (Multiply)    (None, 32, 32, 960)  0           block5d_activation[0][0]         
                                                                 block5d_se_expand[0][0]          
__________________________________________________________________________________________________
block5d_project_conv (Conv2D)   (None, 32, 32, 160)  153600      block5d_se_excite[0][0]          
__________________________________________________________________________________________________
block5d_project_bn (BatchNormal (None, 32, 32, 160)  640         block5d_project_conv[0][0]       
__________________________________________________________________________________________________
block5d_drop (Dropout)          (None, 32, 32, 160)  0           block5d_project_bn[0][0]         
__________________________________________________________________________________________________
block5d_add (Add)               (None, 32, 32, 160)  0           block5d_drop[0][0]               
                                                                 block5c_add[0][0]                
__________________________________________________________________________________________________
block5e_expand_conv (Conv2D)    (None, 32, 32, 960)  153600      block5d_add[0][0]                
__________________________________________________________________________________________________
block5e_expand_bn (BatchNormali (None, 32, 32, 960)  3840        block5e_expand_conv[0][0]        
__________________________________________________________________________________________________
block5e_expand_activation (Acti (None, 32, 32, 960)  0           block5e_expand_bn[0][0]          
__________________________________________________________________________________________________
block5e_dwconv (DepthwiseConv2D (None, 32, 32, 960)  24000       block5e_expand_activation[0][0]  
__________________________________________________________________________________________________
block5e_bn (BatchNormalization) (None, 32, 32, 960)  3840        block5e_dwconv[0][0]             
__________________________________________________________________________________________________
block5e_activation (Activation) (None, 32, 32, 960)  0           block5e_bn[0][0]                 
__________________________________________________________________________________________________
block5e_se_squeeze (GlobalAvera (None, 960)          0           block5e_activation[0][0]         
__________________________________________________________________________________________________
block5e_se_reshape (Reshape)    (None, 1, 1, 960)    0           block5e_se_squeeze[0][0]         
__________________________________________________________________________________________________
block5e_se_reduce (Conv2D)      (None, 1, 1, 40)     38440       block5e_se_reshape[0][0]         
__________________________________________________________________________________________________
block5e_se_expand (Conv2D)      (None, 1, 1, 960)    39360       block5e_se_reduce[0][0]          
__________________________________________________________________________________________________
block5e_se_excite (Multiply)    (None, 32, 32, 960)  0           block5e_activation[0][0]         
                                                                 block5e_se_expand[0][0]          
__________________________________________________________________________________________________
block5e_project_conv (Conv2D)   (None, 32, 32, 160)  153600      block5e_se_excite[0][0]          
__________________________________________________________________________________________________
block5e_project_bn (BatchNormal (None, 32, 32, 160)  640         block5e_project_conv[0][0]       
__________________________________________________________________________________________________
block5e_drop (Dropout)          (None, 32, 32, 160)  0           block5e_project_bn[0][0]         
__________________________________________________________________________________________________
block5e_add (Add)               (None, 32, 32, 160)  0           block5e_drop[0][0]               
                                                                 block5d_add[0][0]                
__________________________________________________________________________________________________
block5f_expand_conv (Conv2D)    (None, 32, 32, 960)  153600      block5e_add[0][0]                
__________________________________________________________________________________________________
block5f_expand_bn (BatchNormali (None, 32, 32, 960)  3840        block5f_expand_conv[0][0]        
__________________________________________________________________________________________________
block5f_expand_activation (Acti (None, 32, 32, 960)  0           block5f_expand_bn[0][0]          
__________________________________________________________________________________________________
block5f_dwconv (DepthwiseConv2D (None, 32, 32, 960)  24000       block5f_expand_activation[0][0]  
__________________________________________________________________________________________________
block5f_bn (BatchNormalization) (None, 32, 32, 960)  3840        block5f_dwconv[0][0]             
__________________________________________________________________________________________________
block5f_activation (Activation) (None, 32, 32, 960)  0           block5f_bn[0][0]                 
__________________________________________________________________________________________________
block5f_se_squeeze (GlobalAvera (None, 960)          0           block5f_activation[0][0]         
__________________________________________________________________________________________________
block5f_se_reshape (Reshape)    (None, 1, 1, 960)    0           block5f_se_squeeze[0][0]         
__________________________________________________________________________________________________
block5f_se_reduce (Conv2D)      (None, 1, 1, 40)     38440       block5f_se_reshape[0][0]         
__________________________________________________________________________________________________
block5f_se_expand (Conv2D)      (None, 1, 1, 960)    39360       block5f_se_reduce[0][0]          
__________________________________________________________________________________________________
block5f_se_excite (Multiply)    (None, 32, 32, 960)  0           block5f_activation[0][0]         
                                                                 block5f_se_expand[0][0]          
__________________________________________________________________________________________________
block5f_project_conv (Conv2D)   (None, 32, 32, 160)  153600      block5f_se_excite[0][0]          
__________________________________________________________________________________________________
block5f_project_bn (BatchNormal (None, 32, 32, 160)  640         block5f_project_conv[0][0]       
__________________________________________________________________________________________________
block5f_drop (Dropout)          (None, 32, 32, 160)  0           block5f_project_bn[0][0]         
__________________________________________________________________________________________________
block5f_add (Add)               (None, 32, 32, 160)  0           block5f_drop[0][0]               
                                                                 block5e_add[0][0]                
__________________________________________________________________________________________________
block6a_expand_conv (Conv2D)    (None, 32, 32, 960)  153600      block5f_add[0][0]                
__________________________________________________________________________________________________
block6a_expand_bn (BatchNormali (None, 32, 32, 960)  3840        block6a_expand_conv[0][0]        
__________________________________________________________________________________________________
block6a_expand_activation (Acti (None, 32, 32, 960)  0           block6a_expand_bn[0][0]          
__________________________________________________________________________________________________
block6a_dwconv_pad (ZeroPadding (None, 35, 35, 960)  0           block6a_expand_activation[0][0]  
__________________________________________________________________________________________________
block6a_dwconv (DepthwiseConv2D (None, 16, 16, 960)  24000       block6a_dwconv_pad[0][0]         
__________________________________________________________________________________________________
block6a_bn (BatchNormalization) (None, 16, 16, 960)  3840        block6a_dwconv[0][0]             
__________________________________________________________________________________________________
block6a_activation (Activation) (None, 16, 16, 960)  0           block6a_bn[0][0]                 
__________________________________________________________________________________________________
block6a_se_squeeze (GlobalAvera (None, 960)          0           block6a_activation[0][0]         
__________________________________________________________________________________________________
block6a_se_reshape (Reshape)    (None, 1, 1, 960)    0           block6a_se_squeeze[0][0]         
__________________________________________________________________________________________________
block6a_se_reduce (Conv2D)      (None, 1, 1, 40)     38440       block6a_se_reshape[0][0]         
__________________________________________________________________________________________________
block6a_se_expand (Conv2D)      (None, 1, 1, 960)    39360       block6a_se_reduce[0][0]          
__________________________________________________________________________________________________
block6a_se_excite (Multiply)    (None, 16, 16, 960)  0           block6a_activation[0][0]         
                                                                 block6a_se_expand[0][0]          
__________________________________________________________________________________________________
block6a_project_conv (Conv2D)   (None, 16, 16, 272)  261120      block6a_se_excite[0][0]          
__________________________________________________________________________________________________
block6a_project_bn (BatchNormal (None, 16, 16, 272)  1088        block6a_project_conv[0][0]       
__________________________________________________________________________________________________
block6b_expand_conv (Conv2D)    (None, 16, 16, 1632) 443904      block6a_project_bn[0][0]         
__________________________________________________________________________________________________
block6b_expand_bn (BatchNormali (None, 16, 16, 1632) 6528        block6b_expand_conv[0][0]        
__________________________________________________________________________________________________
block6b_expand_activation (Acti (None, 16, 16, 1632) 0           block6b_expand_bn[0][0]          
__________________________________________________________________________________________________
block6b_dwconv (DepthwiseConv2D (None, 16, 16, 1632) 40800       block6b_expand_activation[0][0]  
__________________________________________________________________________________________________
block6b_bn (BatchNormalization) (None, 16, 16, 1632) 6528        block6b_dwconv[0][0]             
__________________________________________________________________________________________________
block6b_activation (Activation) (None, 16, 16, 1632) 0           block6b_bn[0][0]                 
__________________________________________________________________________________________________
block6b_se_squeeze (GlobalAvera (None, 1632)         0           block6b_activation[0][0]         
__________________________________________________________________________________________________
block6b_se_reshape (Reshape)    (None, 1, 1, 1632)   0           block6b_se_squeeze[0][0]         
__________________________________________________________________________________________________
block6b_se_reduce (Conv2D)      (None, 1, 1, 68)     111044      block6b_se_reshape[0][0]         
__________________________________________________________________________________________________
block6b_se_expand (Conv2D)      (None, 1, 1, 1632)   112608      block6b_se_reduce[0][0]          
__________________________________________________________________________________________________
block6b_se_excite (Multiply)    (None, 16, 16, 1632) 0           block6b_activation[0][0]         
                                                                 block6b_se_expand[0][0]          
__________________________________________________________________________________________________
block6b_project_conv (Conv2D)   (None, 16, 16, 272)  443904      block6b_se_excite[0][0]          
__________________________________________________________________________________________________
block6b_project_bn (BatchNormal (None, 16, 16, 272)  1088        block6b_project_conv[0][0]       
__________________________________________________________________________________________________
block6b_drop (Dropout)          (None, 16, 16, 272)  0           block6b_project_bn[0][0]         
__________________________________________________________________________________________________
block6b_add (Add)               (None, 16, 16, 272)  0           block6b_drop[0][0]               
                                                                 block6a_project_bn[0][0]         
__________________________________________________________________________________________________
block6c_expand_conv (Conv2D)    (None, 16, 16, 1632) 443904      block6b_add[0][0]                
__________________________________________________________________________________________________
block6c_expand_bn (BatchNormali (None, 16, 16, 1632) 6528        block6c_expand_conv[0][0]        
__________________________________________________________________________________________________
block6c_expand_activation (Acti (None, 16, 16, 1632) 0           block6c_expand_bn[0][0]          
__________________________________________________________________________________________________
block6c_dwconv (DepthwiseConv2D (None, 16, 16, 1632) 40800       block6c_expand_activation[0][0]  
__________________________________________________________________________________________________
block6c_bn (BatchNormalization) (None, 16, 16, 1632) 6528        block6c_dwconv[0][0]             
__________________________________________________________________________________________________
block6c_activation (Activation) (None, 16, 16, 1632) 0           block6c_bn[0][0]                 
__________________________________________________________________________________________________
block6c_se_squeeze (GlobalAvera (None, 1632)         0           block6c_activation[0][0]         
__________________________________________________________________________________________________
block6c_se_reshape (Reshape)    (None, 1, 1, 1632)   0           block6c_se_squeeze[0][0]         
__________________________________________________________________________________________________
block6c_se_reduce (Conv2D)      (None, 1, 1, 68)     111044      block6c_se_reshape[0][0]         
__________________________________________________________________________________________________
block6c_se_expand (Conv2D)      (None, 1, 1, 1632)   112608      block6c_se_reduce[0][0]          
__________________________________________________________________________________________________
block6c_se_excite (Multiply)    (None, 16, 16, 1632) 0           block6c_activation[0][0]         
                                                                 block6c_se_expand[0][0]          
__________________________________________________________________________________________________
block6c_project_conv (Conv2D)   (None, 16, 16, 272)  443904      block6c_se_excite[0][0]          
__________________________________________________________________________________________________
block6c_project_bn (BatchNormal (None, 16, 16, 272)  1088        block6c_project_conv[0][0]       
__________________________________________________________________________________________________
block6c_drop (Dropout)          (None, 16, 16, 272)  0           block6c_project_bn[0][0]         
__________________________________________________________________________________________________
block6c_add (Add)               (None, 16, 16, 272)  0           block6c_drop[0][0]               
                                                                 block6b_add[0][0]                
__________________________________________________________________________________________________
block6d_expand_conv (Conv2D)    (None, 16, 16, 1632) 443904      block6c_add[0][0]                
__________________________________________________________________________________________________
block6d_expand_bn (BatchNormali (None, 16, 16, 1632) 6528        block6d_expand_conv[0][0]        
__________________________________________________________________________________________________
block6d_expand_activation (Acti (None, 16, 16, 1632) 0           block6d_expand_bn[0][0]          
__________________________________________________________________________________________________
block6d_dwconv (DepthwiseConv2D (None, 16, 16, 1632) 40800       block6d_expand_activation[0][0]  
__________________________________________________________________________________________________
block6d_bn (BatchNormalization) (None, 16, 16, 1632) 6528        block6d_dwconv[0][0]             
__________________________________________________________________________________________________
block6d_activation (Activation) (None, 16, 16, 1632) 0           block6d_bn[0][0]                 
__________________________________________________________________________________________________
block6d_se_squeeze (GlobalAvera (None, 1632)         0           block6d_activation[0][0]         
__________________________________________________________________________________________________
block6d_se_reshape (Reshape)    (None, 1, 1, 1632)   0           block6d_se_squeeze[0][0]         
__________________________________________________________________________________________________
block6d_se_reduce (Conv2D)      (None, 1, 1, 68)     111044      block6d_se_reshape[0][0]         
__________________________________________________________________________________________________
block6d_se_expand (Conv2D)      (None, 1, 1, 1632)   112608      block6d_se_reduce[0][0]          
__________________________________________________________________________________________________
block6d_se_excite (Multiply)    (None, 16, 16, 1632) 0           block6d_activation[0][0]         
                                                                 block6d_se_expand[0][0]          
__________________________________________________________________________________________________
block6d_project_conv (Conv2D)   (None, 16, 16, 272)  443904      block6d_se_excite[0][0]          
__________________________________________________________________________________________________
block6d_project_bn (BatchNormal (None, 16, 16, 272)  1088        block6d_project_conv[0][0]       
__________________________________________________________________________________________________
block6d_drop (Dropout)          (None, 16, 16, 272)  0           block6d_project_bn[0][0]         
__________________________________________________________________________________________________
block6d_add (Add)               (None, 16, 16, 272)  0           block6d_drop[0][0]               
                                                                 block6c_add[0][0]                
__________________________________________________________________________________________________
block6e_expand_conv (Conv2D)    (None, 16, 16, 1632) 443904      block6d_add[0][0]                
__________________________________________________________________________________________________
block6e_expand_bn (BatchNormali (None, 16, 16, 1632) 6528        block6e_expand_conv[0][0]        
__________________________________________________________________________________________________
block6e_expand_activation (Acti (None, 16, 16, 1632) 0           block6e_expand_bn[0][0]          
__________________________________________________________________________________________________
block6e_dwconv (DepthwiseConv2D (None, 16, 16, 1632) 40800       block6e_expand_activation[0][0]  
__________________________________________________________________________________________________
block6e_bn (BatchNormalization) (None, 16, 16, 1632) 6528        block6e_dwconv[0][0]             
__________________________________________________________________________________________________
block6e_activation (Activation) (None, 16, 16, 1632) 0           block6e_bn[0][0]                 
__________________________________________________________________________________________________
block6e_se_squeeze (GlobalAvera (None, 1632)         0           block6e_activation[0][0]         
__________________________________________________________________________________________________
block6e_se_reshape (Reshape)    (None, 1, 1, 1632)   0           block6e_se_squeeze[0][0]         
__________________________________________________________________________________________________
block6e_se_reduce (Conv2D)      (None, 1, 1, 68)     111044      block6e_se_reshape[0][0]         
__________________________________________________________________________________________________
block6e_se_expand (Conv2D)      (None, 1, 1, 1632)   112608      block6e_se_reduce[0][0]          
__________________________________________________________________________________________________
block6e_se_excite (Multiply)    (None, 16, 16, 1632) 0           block6e_activation[0][0]         
                                                                 block6e_se_expand[0][0]          
__________________________________________________________________________________________________
block6e_project_conv (Conv2D)   (None, 16, 16, 272)  443904      block6e_se_excite[0][0]          
__________________________________________________________________________________________________
block6e_project_bn (BatchNormal (None, 16, 16, 272)  1088        block6e_project_conv[0][0]       
__________________________________________________________________________________________________
block6e_drop (Dropout)          (None, 16, 16, 272)  0           block6e_project_bn[0][0]         
__________________________________________________________________________________________________
block6e_add (Add)               (None, 16, 16, 272)  0           block6e_drop[0][0]               
                                                                 block6d_add[0][0]                
__________________________________________________________________________________________________
block6f_expand_conv (Conv2D)    (None, 16, 16, 1632) 443904      block6e_add[0][0]                
__________________________________________________________________________________________________
block6f_expand_bn (BatchNormali (None, 16, 16, 1632) 6528        block6f_expand_conv[0][0]        
__________________________________________________________________________________________________
block6f_expand_activation (Acti (None, 16, 16, 1632) 0           block6f_expand_bn[0][0]          
__________________________________________________________________________________________________
block6f_dwconv (DepthwiseConv2D (None, 16, 16, 1632) 40800       block6f_expand_activation[0][0]  
__________________________________________________________________________________________________
block6f_bn (BatchNormalization) (None, 16, 16, 1632) 6528        block6f_dwconv[0][0]             
__________________________________________________________________________________________________
block6f_activation (Activation) (None, 16, 16, 1632) 0           block6f_bn[0][0]                 
__________________________________________________________________________________________________
block6f_se_squeeze (GlobalAvera (None, 1632)         0           block6f_activation[0][0]         
__________________________________________________________________________________________________
block6f_se_reshape (Reshape)    (None, 1, 1, 1632)   0           block6f_se_squeeze[0][0]         
__________________________________________________________________________________________________
block6f_se_reduce (Conv2D)      (None, 1, 1, 68)     111044      block6f_se_reshape[0][0]         
__________________________________________________________________________________________________
block6f_se_expand (Conv2D)      (None, 1, 1, 1632)   112608      block6f_se_reduce[0][0]          
__________________________________________________________________________________________________
block6f_se_excite (Multiply)    (None, 16, 16, 1632) 0           block6f_activation[0][0]         
                                                                 block6f_se_expand[0][0]          
__________________________________________________________________________________________________
block6f_project_conv (Conv2D)   (None, 16, 16, 272)  443904      block6f_se_excite[0][0]          
__________________________________________________________________________________________________
block6f_project_bn (BatchNormal (None, 16, 16, 272)  1088        block6f_project_conv[0][0]       
__________________________________________________________________________________________________
block6f_drop (Dropout)          (None, 16, 16, 272)  0           block6f_project_bn[0][0]         
__________________________________________________________________________________________________
block6f_add (Add)               (None, 16, 16, 272)  0           block6f_drop[0][0]               
                                                                 block6e_add[0][0]                
__________________________________________________________________________________________________
block6g_expand_conv (Conv2D)    (None, 16, 16, 1632) 443904      block6f_add[0][0]                
__________________________________________________________________________________________________
block6g_expand_bn (BatchNormali (None, 16, 16, 1632) 6528        block6g_expand_conv[0][0]        
__________________________________________________________________________________________________
block6g_expand_activation (Acti (None, 16, 16, 1632) 0           block6g_expand_bn[0][0]          
__________________________________________________________________________________________________
block6g_dwconv (DepthwiseConv2D (None, 16, 16, 1632) 40800       block6g_expand_activation[0][0]  
__________________________________________________________________________________________________
block6g_bn (BatchNormalization) (None, 16, 16, 1632) 6528        block6g_dwconv[0][0]             
__________________________________________________________________________________________________
block6g_activation (Activation) (None, 16, 16, 1632) 0           block6g_bn[0][0]                 
__________________________________________________________________________________________________
block6g_se_squeeze (GlobalAvera (None, 1632)         0           block6g_activation[0][0]         
__________________________________________________________________________________________________
block6g_se_reshape (Reshape)    (None, 1, 1, 1632)   0           block6g_se_squeeze[0][0]         
__________________________________________________________________________________________________
block6g_se_reduce (Conv2D)      (None, 1, 1, 68)     111044      block6g_se_reshape[0][0]         
__________________________________________________________________________________________________
block6g_se_expand (Conv2D)      (None, 1, 1, 1632)   112608      block6g_se_reduce[0][0]          
__________________________________________________________________________________________________
block6g_se_excite (Multiply)    (None, 16, 16, 1632) 0           block6g_activation[0][0]         
                                                                 block6g_se_expand[0][0]          
__________________________________________________________________________________________________
block6g_project_conv (Conv2D)   (None, 16, 16, 272)  443904      block6g_se_excite[0][0]          
__________________________________________________________________________________________________
block6g_project_bn (BatchNormal (None, 16, 16, 272)  1088        block6g_project_conv[0][0]       
__________________________________________________________________________________________________
block6g_drop (Dropout)          (None, 16, 16, 272)  0           block6g_project_bn[0][0]         
__________________________________________________________________________________________________
block6g_add (Add)               (None, 16, 16, 272)  0           block6g_drop[0][0]               
                                                                 block6f_add[0][0]                
__________________________________________________________________________________________________
block6h_expand_conv (Conv2D)    (None, 16, 16, 1632) 443904      block6g_add[0][0]                
__________________________________________________________________________________________________
block6h_expand_bn (BatchNormali (None, 16, 16, 1632) 6528        block6h_expand_conv[0][0]        
__________________________________________________________________________________________________
block6h_expand_activation (Acti (None, 16, 16, 1632) 0           block6h_expand_bn[0][0]          
__________________________________________________________________________________________________
block6h_dwconv (DepthwiseConv2D (None, 16, 16, 1632) 40800       block6h_expand_activation[0][0]  
__________________________________________________________________________________________________
block6h_bn (BatchNormalization) (None, 16, 16, 1632) 6528        block6h_dwconv[0][0]             
__________________________________________________________________________________________________
block6h_activation (Activation) (None, 16, 16, 1632) 0           block6h_bn[0][0]                 
__________________________________________________________________________________________________
block6h_se_squeeze (GlobalAvera (None, 1632)         0           block6h_activation[0][0]         
__________________________________________________________________________________________________
block6h_se_reshape (Reshape)    (None, 1, 1, 1632)   0           block6h_se_squeeze[0][0]         
__________________________________________________________________________________________________
block6h_se_reduce (Conv2D)      (None, 1, 1, 68)     111044      block6h_se_reshape[0][0]         
__________________________________________________________________________________________________
block6h_se_expand (Conv2D)      (None, 1, 1, 1632)   112608      block6h_se_reduce[0][0]          
__________________________________________________________________________________________________
block6h_se_excite (Multiply)    (None, 16, 16, 1632) 0           block6h_activation[0][0]         
                                                                 block6h_se_expand[0][0]          
__________________________________________________________________________________________________
block6h_project_conv (Conv2D)   (None, 16, 16, 272)  443904      block6h_se_excite[0][0]          
__________________________________________________________________________________________________
block6h_project_bn (BatchNormal (None, 16, 16, 272)  1088        block6h_project_conv[0][0]       
__________________________________________________________________________________________________
block6h_drop (Dropout)          (None, 16, 16, 272)  0           block6h_project_bn[0][0]         
__________________________________________________________________________________________________
block6h_add (Add)               (None, 16, 16, 272)  0           block6h_drop[0][0]               
                                                                 block6g_add[0][0]                
__________________________________________________________________________________________________
block7a_expand_conv (Conv2D)    (None, 16, 16, 1632) 443904      block6h_add[0][0]                
__________________________________________________________________________________________________
block7a_expand_bn (BatchNormali (None, 16, 16, 1632) 6528        block7a_expand_conv[0][0]        
__________________________________________________________________________________________________
block7a_expand_activation (Acti (None, 16, 16, 1632) 0           block7a_expand_bn[0][0]          
__________________________________________________________________________________________________
block7a_dwconv (DepthwiseConv2D (None, 16, 16, 1632) 14688       block7a_expand_activation[0][0]  
__________________________________________________________________________________________________
block7a_bn (BatchNormalization) (None, 16, 16, 1632) 6528        block7a_dwconv[0][0]             
__________________________________________________________________________________________________
block7a_activation (Activation) (None, 16, 16, 1632) 0           block7a_bn[0][0]                 
__________________________________________________________________________________________________
block7a_se_squeeze (GlobalAvera (None, 1632)         0           block7a_activation[0][0]         
__________________________________________________________________________________________________
block7a_se_reshape (Reshape)    (None, 1, 1, 1632)   0           block7a_se_squeeze[0][0]         
__________________________________________________________________________________________________
block7a_se_reduce (Conv2D)      (None, 1, 1, 68)     111044      block7a_se_reshape[0][0]         
__________________________________________________________________________________________________
block7a_se_expand (Conv2D)      (None, 1, 1, 1632)   112608      block7a_se_reduce[0][0]          
__________________________________________________________________________________________________
block7a_se_excite (Multiply)    (None, 16, 16, 1632) 0           block7a_activation[0][0]         
                                                                 block7a_se_expand[0][0]          
__________________________________________________________________________________________________
block7a_project_conv (Conv2D)   (None, 16, 16, 448)  731136      block7a_se_excite[0][0]          
__________________________________________________________________________________________________
block7a_project_bn (BatchNormal (None, 16, 16, 448)  1792        block7a_project_conv[0][0]       
__________________________________________________________________________________________________
block7b_expand_conv (Conv2D)    (None, 16, 16, 2688) 1204224     block7a_project_bn[0][0]         
__________________________________________________________________________________________________
block7b_expand_bn (BatchNormali (None, 16, 16, 2688) 10752       block7b_expand_conv[0][0]        
__________________________________________________________________________________________________
block7b_expand_activation (Acti (None, 16, 16, 2688) 0           block7b_expand_bn[0][0]          
__________________________________________________________________________________________________
block7b_dwconv (DepthwiseConv2D (None, 16, 16, 2688) 24192       block7b_expand_activation[0][0]  
__________________________________________________________________________________________________
block7b_bn (BatchNormalization) (None, 16, 16, 2688) 10752       block7b_dwconv[0][0]             
__________________________________________________________________________________________________
block7b_activation (Activation) (None, 16, 16, 2688) 0           block7b_bn[0][0]                 
__________________________________________________________________________________________________
block7b_se_squeeze (GlobalAvera (None, 2688)         0           block7b_activation[0][0]         
__________________________________________________________________________________________________
block7b_se_reshape (Reshape)    (None, 1, 1, 2688)   0           block7b_se_squeeze[0][0]         
__________________________________________________________________________________________________
block7b_se_reduce (Conv2D)      (None, 1, 1, 112)    301168      block7b_se_reshape[0][0]         
__________________________________________________________________________________________________
block7b_se_expand (Conv2D)      (None, 1, 1, 2688)   303744      block7b_se_reduce[0][0]          
__________________________________________________________________________________________________
block7b_se_excite (Multiply)    (None, 16, 16, 2688) 0           block7b_activation[0][0]         
                                                                 block7b_se_expand[0][0]          
__________________________________________________________________________________________________
block7b_project_conv (Conv2D)   (None, 16, 16, 448)  1204224     block7b_se_excite[0][0]          
__________________________________________________________________________________________________
block7b_project_bn (BatchNormal (None, 16, 16, 448)  1792        block7b_project_conv[0][0]       
__________________________________________________________________________________________________
block7b_drop (Dropout)          (None, 16, 16, 448)  0           block7b_project_bn[0][0]         
__________________________________________________________________________________________________
block7b_add (Add)               (None, 16, 16, 448)  0           block7b_drop[0][0]               
                                                                 block7a_project_bn[0][0]         
__________________________________________________________________________________________________
top_conv (Conv2D)               (None, 16, 16, 1792) 802816      block7b_add[0][0]                
__________________________________________________________________________________________________
top_bn (BatchNormalization)     (None, 16, 16, 1792) 7168        top_conv[0][0]                   
__________________________________________________________________________________________________
top_activation (Activation)     (None, 16, 16, 1792) 0           top_bn[0][0]                     
__________________________________________________________________________________________________
conv_p7in_bifpn (Conv2D)        (None, 16, 16, 160)  2580640     top_activation[0][0]             
__________________________________________________________________________________________________
conv_p6in_bifpn (Conv2D)        (None, 16, 16, 160)  391840      block6h_add[0][0]                
__________________________________________________________________________________________________
bn_p7in_bifpn (BatchNormalizati (None, 16, 16, 160)  640         conv_p7in_bifpn[0][0]            
__________________________________________________________________________________________________
bn_p6in_bifpn (BatchNormalizati (None, 16, 16, 160)  640         conv_p6in_bifpn[0][0]            
__________________________________________________________________________________________________
act_p7in_bifpn (Activation)     (None, 16, 16, 160)  0           bn_p7in_bifpn[0][0]              
__________________________________________________________________________________________________
act_p6in_bifpn (Activation)     (None, 16, 16, 160)  0           bn_p6in_bifpn[0][0]              
__________________________________________________________________________________________________
drop_p7in_bifpn (SpatialDropout (None, 16, 16, 160)  0           act_p7in_bifpn[0][0]             
__________________________________________________________________________________________________
drop_p6in_bifpn (SpatialDropout (None, 16, 16, 160)  0           act_p6in_bifpn[0][0]             
__________________________________________________________________________________________________
se_dw_se_td_p6_1 (DepthwiseConv (None, 16, 16, 160)  1600        drop_p6in_bifpn[0][0]            
__________________________________________________________________________________________________
se_dw_se_td_p7_1 (DepthwiseConv (None, 16, 16, 160)  1600        drop_p7in_bifpn[0][0]            
__________________________________________________________________________________________________
se_bn_se_td_p6_1 (BatchNormaliz (None, 16, 16, 160)  640         se_dw_se_td_p6_1[0][0]           
__________________________________________________________________________________________________
se_bn_se_td_p7_1 (BatchNormaliz (None, 16, 16, 160)  640         se_dw_se_td_p7_1[0][0]           
__________________________________________________________________________________________________
se_act_se_td_p6_1 (Activation)  (None, 16, 16, 160)  0           se_bn_se_td_p6_1[0][0]           
__________________________________________________________________________________________________
se_act_se_td_p7_1 (Activation)  (None, 16, 16, 160)  0           se_bn_se_td_p7_1[0][0]           
__________________________________________________________________________________________________
gap_se_td_p6_1 (GlobalAveragePo (None, 160)          0           se_act_se_td_p6_1[0][0]          
__________________________________________________________________________________________________
gap_se_td_p7_1 (GlobalAveragePo (None, 160)          0           se_act_se_td_p7_1[0][0]          
__________________________________________________________________________________________________
se_reshape_se_td_p6_1 (Reshape) (None, 1, 1, 160)    0           gap_se_td_p6_1[0][0]             
__________________________________________________________________________________________________
se_reshape_se_td_p7_1 (Reshape) (None, 1, 1, 160)    0           gap_se_td_p7_1[0][0]             
__________________________________________________________________________________________________
fc1_se_td_p6_1 (Dense)          (None, 1, 1, 20)     3220        se_reshape_se_td_p6_1[0][0]      
__________________________________________________________________________________________________
fc1_se_td_p7_1 (Dense)          (None, 1, 1, 20)     3220        se_reshape_se_td_p7_1[0][0]      
__________________________________________________________________________________________________
fc2_se_td_p6_1 (Dense)          (None, 1, 1, 160)    3360        fc1_se_td_p6_1[0][0]             
__________________________________________________________________________________________________
fc2_se_td_p7_1 (Dense)          (None, 1, 1, 160)    3360        fc1_se_td_p7_1[0][0]             
__________________________________________________________________________________________________
mul_se_td_p6_1 (Multiply)       (None, 16, 16, 160)  0           se_act_se_td_p6_1[0][0]          
                                                                 fc2_se_td_p6_1[0][0]             
__________________________________________________________________________________________________
mul_se_td_p7_1 (Multiply)       (None, 16, 16, 160)  0           se_act_se_td_p7_1[0][0]          
                                                                 fc2_se_td_p7_1[0][0]             
__________________________________________________________________________________________________
add_p6p7_1 (Add)                (None, 16, 16, 160)  0           mul_se_td_p6_1[0][0]             
                                                                 mul_se_td_p7_1[0][0]             
__________________________________________________________________________________________________
dw_p6td_bifpn_1 (DepthwiseConv2 (None, 16, 16, 160)  1600        add_p6p7_1[0][0]                 
__________________________________________________________________________________________________
conv_p5in_bifpn (Conv2D)        (None, 32, 32, 160)  230560      block5f_add[0][0]                
__________________________________________________________________________________________________
bn_p6td_bifpn_1 (BatchNormaliza (None, 16, 16, 160)  640         dw_p6td_bifpn_1[0][0]            
__________________________________________________________________________________________________
bn_p5in_bifpn (BatchNormalizati (None, 32, 32, 160)  640         conv_p5in_bifpn[0][0]            
__________________________________________________________________________________________________
act_p6td_bifpn_1 (Activation)   (None, 16, 16, 160)  0           bn_p6td_bifpn_1[0][0]            
__________________________________________________________________________________________________
act_p5in_bifpn (Activation)     (None, 32, 32, 160)  0           bn_p5in_bifpn[0][0]              
__________________________________________________________________________________________________
drop_p6td_bifpn_1 (SpatialDropo (None, 16, 16, 160)  0           act_p6td_bifpn_1[0][0]           
__________________________________________________________________________________________________
drop_p5in_bifpn (SpatialDropout (None, 32, 32, 160)  0           act_p5in_bifpn[0][0]             
__________________________________________________________________________________________________
resizing (Resizing)             (None, 32, 32, 160)  0           drop_p6td_bifpn_1[0][0]          
__________________________________________________________________________________________________
se_dw_se_td_p5_1 (DepthwiseConv (None, 32, 32, 160)  1600        drop_p5in_bifpn[0][0]            
__________________________________________________________________________________________________
se_dw_se_td_p6td_1 (DepthwiseCo (None, 32, 32, 160)  1600        resizing[0][0]                   
__________________________________________________________________________________________________
se_bn_se_td_p5_1 (BatchNormaliz (None, 32, 32, 160)  640         se_dw_se_td_p5_1[0][0]           
__________________________________________________________________________________________________
se_bn_se_td_p6td_1 (BatchNormal (None, 32, 32, 160)  640         se_dw_se_td_p6td_1[0][0]         
__________________________________________________________________________________________________
se_act_se_td_p5_1 (Activation)  (None, 32, 32, 160)  0           se_bn_se_td_p5_1[0][0]           
__________________________________________________________________________________________________
se_act_se_td_p6td_1 (Activation (None, 32, 32, 160)  0           se_bn_se_td_p6td_1[0][0]         
__________________________________________________________________________________________________
gap_se_td_p5_1 (GlobalAveragePo (None, 160)          0           se_act_se_td_p5_1[0][0]          
__________________________________________________________________________________________________
gap_se_td_p6td_1 (GlobalAverage (None, 160)          0           se_act_se_td_p6td_1[0][0]        
__________________________________________________________________________________________________
se_reshape_se_td_p5_1 (Reshape) (None, 1, 1, 160)    0           gap_se_td_p5_1[0][0]             
__________________________________________________________________________________________________
se_reshape_se_td_p6td_1 (Reshap (None, 1, 1, 160)    0           gap_se_td_p6td_1[0][0]           
__________________________________________________________________________________________________
fc1_se_td_p5_1 (Dense)          (None, 1, 1, 20)     3220        se_reshape_se_td_p5_1[0][0]      
__________________________________________________________________________________________________
fc1_se_td_p6td_1 (Dense)        (None, 1, 1, 20)     3220        se_reshape_se_td_p6td_1[0][0]    
__________________________________________________________________________________________________
fc2_se_td_p5_1 (Dense)          (None, 1, 1, 160)    3360        fc1_se_td_p5_1[0][0]             
__________________________________________________________________________________________________
fc2_se_td_p6td_1 (Dense)        (None, 1, 1, 160)    3360        fc1_se_td_p6td_1[0][0]           
__________________________________________________________________________________________________
mul_se_td_p5_1 (Multiply)       (None, 32, 32, 160)  0           se_act_se_td_p5_1[0][0]          
                                                                 fc2_se_td_p5_1[0][0]             
__________________________________________________________________________________________________
mul_se_td_p6td_1 (Multiply)     (None, 32, 32, 160)  0           se_act_se_td_p6td_1[0][0]        
                                                                 fc2_se_td_p6td_1[0][0]           
__________________________________________________________________________________________________
add_p5p6td_1 (Add)              (None, 32, 32, 160)  0           mul_se_td_p5_1[0][0]             
                                                                 mul_se_td_p6td_1[0][0]           
__________________________________________________________________________________________________
conv_p4in_bifpn (Conv2D)        (None, 32, 32, 160)  161440      block4f_add[0][0]                
__________________________________________________________________________________________________
dw_p5td_bifpn_1 (DepthwiseConv2 (None, 32, 32, 160)  1600        add_p5p6td_1[0][0]               
__________________________________________________________________________________________________
bn_p4in_bifpn (BatchNormalizati (None, 32, 32, 160)  640         conv_p4in_bifpn[0][0]            
__________________________________________________________________________________________________
bn_p5td_bifpn_1 (BatchNormaliza (None, 32, 32, 160)  640         dw_p5td_bifpn_1[0][0]            
__________________________________________________________________________________________________
act_p4in_bifpn (Activation)     (None, 32, 32, 160)  0           bn_p4in_bifpn[0][0]              
__________________________________________________________________________________________________
act_p5td_bifpn_1 (Activation)   (None, 32, 32, 160)  0           bn_p5td_bifpn_1[0][0]            
__________________________________________________________________________________________________
drop_p4in_bifpn (SpatialDropout (None, 32, 32, 160)  0           act_p4in_bifpn[0][0]             
__________________________________________________________________________________________________
drop_p5td_bifpn_1 (SpatialDropo (None, 32, 32, 160)  0           act_p5td_bifpn_1[0][0]           
__________________________________________________________________________________________________
se_dw_se_td_p4_1 (DepthwiseConv (None, 32, 32, 160)  1600        drop_p4in_bifpn[0][0]            
__________________________________________________________________________________________________
se_dw_se_td_p5td_1 (DepthwiseCo (None, 32, 32, 160)  1600        drop_p5td_bifpn_1[0][0]          
__________________________________________________________________________________________________
se_bn_se_td_p4_1 (BatchNormaliz (None, 32, 32, 160)  640         se_dw_se_td_p4_1[0][0]           
__________________________________________________________________________________________________
se_bn_se_td_p5td_1 (BatchNormal (None, 32, 32, 160)  640         se_dw_se_td_p5td_1[0][0]         
__________________________________________________________________________________________________
se_act_se_td_p4_1 (Activation)  (None, 32, 32, 160)  0           se_bn_se_td_p4_1[0][0]           
__________________________________________________________________________________________________
se_act_se_td_p5td_1 (Activation (None, 32, 32, 160)  0           se_bn_se_td_p5td_1[0][0]         
__________________________________________________________________________________________________
gap_se_td_p4_1 (GlobalAveragePo (None, 160)          0           se_act_se_td_p4_1[0][0]          
__________________________________________________________________________________________________
gap_se_td_p5td_1 (GlobalAverage (None, 160)          0           se_act_se_td_p5td_1[0][0]        
__________________________________________________________________________________________________
se_reshape_se_td_p4_1 (Reshape) (None, 1, 1, 160)    0           gap_se_td_p4_1[0][0]             
__________________________________________________________________________________________________
se_reshape_se_td_p5td_1 (Reshap (None, 1, 1, 160)    0           gap_se_td_p5td_1[0][0]           
__________________________________________________________________________________________________
fc1_se_td_p4_1 (Dense)          (None, 1, 1, 20)     3220        se_reshape_se_td_p4_1[0][0]      
__________________________________________________________________________________________________
fc1_se_td_p5td_1 (Dense)        (None, 1, 1, 20)     3220        se_reshape_se_td_p5td_1[0][0]    
__________________________________________________________________________________________________
fc2_se_td_p4_1 (Dense)          (None, 1, 1, 160)    3360        fc1_se_td_p4_1[0][0]             
__________________________________________________________________________________________________
fc2_se_td_p5td_1 (Dense)        (None, 1, 1, 160)    3360        fc1_se_td_p5td_1[0][0]           
__________________________________________________________________________________________________
mul_se_td_p4_1 (Multiply)       (None, 32, 32, 160)  0           se_act_se_td_p4_1[0][0]          
                                                                 fc2_se_td_p4_1[0][0]             
__________________________________________________________________________________________________
mul_se_td_p5td_1 (Multiply)     (None, 32, 32, 160)  0           se_act_se_td_p5td_1[0][0]        
                                                                 fc2_se_td_p5td_1[0][0]           
__________________________________________________________________________________________________
add_p4p5td_1 (Add)              (None, 32, 32, 160)  0           mul_se_td_p4_1[0][0]             
                                                                 mul_se_td_p5td_1[0][0]           
__________________________________________________________________________________________________
dw_p4td_bifpn_1 (DepthwiseConv2 (None, 32, 32, 160)  1600        add_p4p5td_1[0][0]               
__________________________________________________________________________________________________
conv_p3in_bifpn (Conv2D)        (None, 64, 64, 160)  80800       block3d_add[0][0]                
__________________________________________________________________________________________________
bn_p4td_bifpn_1 (BatchNormaliza (None, 32, 32, 160)  640         dw_p4td_bifpn_1[0][0]            
__________________________________________________________________________________________________
bn_p3in_bifpn (BatchNormalizati (None, 64, 64, 160)  640         conv_p3in_bifpn[0][0]            
__________________________________________________________________________________________________
act_p4td_bifpn_1 (Activation)   (None, 32, 32, 160)  0           bn_p4td_bifpn_1[0][0]            
__________________________________________________________________________________________________
act_p3in_bifpn (Activation)     (None, 64, 64, 160)  0           bn_p3in_bifpn[0][0]              
__________________________________________________________________________________________________
drop_p4td_bifpn_1 (SpatialDropo (None, 32, 32, 160)  0           act_p4td_bifpn_1[0][0]           
__________________________________________________________________________________________________
drop_p3in_bifpn (SpatialDropout (None, 64, 64, 160)  0           act_p3in_bifpn[0][0]             
__________________________________________________________________________________________________
resizing_1 (Resizing)           (None, 64, 64, 160)  0           drop_p4td_bifpn_1[0][0]          
__________________________________________________________________________________________________
se_dw_se_td_p3_1 (DepthwiseConv (None, 64, 64, 160)  1600        drop_p3in_bifpn[0][0]            
__________________________________________________________________________________________________
se_dw_se_td_p4td_1 (DepthwiseCo (None, 64, 64, 160)  1600        resizing_1[0][0]                 
__________________________________________________________________________________________________
se_bn_se_td_p3_1 (BatchNormaliz (None, 64, 64, 160)  640         se_dw_se_td_p3_1[0][0]           
__________________________________________________________________________________________________
se_bn_se_td_p4td_1 (BatchNormal (None, 64, 64, 160)  640         se_dw_se_td_p4td_1[0][0]         
__________________________________________________________________________________________________
se_act_se_td_p3_1 (Activation)  (None, 64, 64, 160)  0           se_bn_se_td_p3_1[0][0]           
__________________________________________________________________________________________________
se_act_se_td_p4td_1 (Activation (None, 64, 64, 160)  0           se_bn_se_td_p4td_1[0][0]         
__________________________________________________________________________________________________
gap_se_td_p3_1 (GlobalAveragePo (None, 160)          0           se_act_se_td_p3_1[0][0]          
__________________________________________________________________________________________________
gap_se_td_p4td_1 (GlobalAverage (None, 160)          0           se_act_se_td_p4td_1[0][0]        
__________________________________________________________________________________________________
se_reshape_se_td_p3_1 (Reshape) (None, 1, 1, 160)    0           gap_se_td_p3_1[0][0]             
__________________________________________________________________________________________________
se_reshape_se_td_p4td_1 (Reshap (None, 1, 1, 160)    0           gap_se_td_p4td_1[0][0]           
__________________________________________________________________________________________________
fc1_se_td_p3_1 (Dense)          (None, 1, 1, 20)     3220        se_reshape_se_td_p3_1[0][0]      
__________________________________________________________________________________________________
fc1_se_td_p4td_1 (Dense)        (None, 1, 1, 20)     3220        se_reshape_se_td_p4td_1[0][0]    
__________________________________________________________________________________________________
fc2_se_td_p3_1 (Dense)          (None, 1, 1, 160)    3360        fc1_se_td_p3_1[0][0]             
__________________________________________________________________________________________________
fc2_se_td_p4td_1 (Dense)        (None, 1, 1, 160)    3360        fc1_se_td_p4td_1[0][0]           
__________________________________________________________________________________________________
mul_se_td_p3_1 (Multiply)       (None, 64, 64, 160)  0           se_act_se_td_p3_1[0][0]          
                                                                 fc2_se_td_p3_1[0][0]             
__________________________________________________________________________________________________
mul_se_td_p4td_1 (Multiply)     (None, 64, 64, 160)  0           se_act_se_td_p4td_1[0][0]        
                                                                 fc2_se_td_p4td_1[0][0]           
__________________________________________________________________________________________________
add_p3p4td_1 (Add)              (None, 64, 64, 160)  0           mul_se_td_p3_1[0][0]             
                                                                 mul_se_td_p4td_1[0][0]           
__________________________________________________________________________________________________
dw_p3td_bifpn_1 (DepthwiseConv2 (None, 64, 64, 160)  1600        add_p3p4td_1[0][0]               
__________________________________________________________________________________________________
conv_p2in_bifpn (Conv2D)        (None, 128, 128, 160 46240       block2d_add[0][0]                
__________________________________________________________________________________________________
bn_p3td_bifpn_1 (BatchNormaliza (None, 64, 64, 160)  640         dw_p3td_bifpn_1[0][0]            
__________________________________________________________________________________________________
bn_p2in_bifpn (BatchNormalizati (None, 128, 128, 160 640         conv_p2in_bifpn[0][0]            
__________________________________________________________________________________________________
act_p3td_bifpn_1 (Activation)   (None, 64, 64, 160)  0           bn_p3td_bifpn_1[0][0]            
__________________________________________________________________________________________________
act_p2in_bifpn (Activation)     (None, 128, 128, 160 0           bn_p2in_bifpn[0][0]              
__________________________________________________________________________________________________
drop_p3td_bifpn_1 (SpatialDropo (None, 64, 64, 160)  0           act_p3td_bifpn_1[0][0]           
__________________________________________________________________________________________________
drop_p2in_bifpn (SpatialDropout (None, 128, 128, 160 0           act_p2in_bifpn[0][0]             
__________________________________________________________________________________________________
resizing_2 (Resizing)           (None, 128, 128, 160 0           drop_p3td_bifpn_1[0][0]          
…
se_bn_se_td_p3td_1 (BatchNormal (None, 128, 128, 160 640         se_dw_se_td_p3td_1[0][0]         
__________________________________________________________________________________________________
se_act_se_td_p2_1 (Activation)  (None, 128, 128, 160 0           se_bn_se_td_p2_1[0][0]           
__________________________________________________________________________________________________
se_act_se_td_p3td_1 (Activation (None, 128, 128, 160 0           se_bn_se_td_p3td_1[0][0]         
__________________________________________________________________________________________________
gap_se_td_p2_1 (GlobalAveragePo (None, 160)          0           se_act_se_td_p2_1[0][0]          
__________________________________________________________________________________________________
gap_se_td_p3td_1 (GlobalAverage (None, 160)          0           se_act_se_td_p3td_1[0][0]        
__________________________________________________________________________________________________
se_reshape_se_td_p2_1 (Reshape) (None, 1, 1, 160)    0           gap_se_td_p2_1[0][0]             
__________________________________________________________________________________________________
se_reshape_se_td_p3td_1 (Reshap (None, 1, 1, 160)    0           gap_se_td_p3td_1[0][0]           
__________________________________________________________________________________________________
fc1_se_td_p2_1 (Dense)          (None, 1, 1, 20)     3220        se_reshape_se_td_p2_1[0][0]      
__________________________________________________________________________________________________
fc1_se_td_p3td_1 (Dense)        (None, 1, 1, 20)     3220        se_reshape_se_td_p3td_1[0][0]    
__________________________________________________________________________________________________
fc2_se_td_p2_1 (Dense)          (None, 1, 1, 160)    3360        fc1_se_td_p2_1[0][0]             
__________________________________________________________________________________________________
fc2_se_td_p3td_1 (Dense)        (None, 1, 1, 160)    3360        fc1_se_td_p3td_1[0][0]           
__________________________________________________________________________________________________
mul_se_td_p2_1 (Multiply)       (None, 128, 128, 160 0           se_act_se_td_p2_1[0][0]          
                                                                 fc2_se_td_p2_1[0][0]             
__________________________________________________________________________________________________
…
bn_p2out_bifpn_1 (BatchNormaliz (None, 128, 128, 160 640         dw_p2out_bifpn_1[0][0]           
__________________________________________________________________________________________________
act_p2out_bifpn_1 (Activation)  (None, 128, 128, 160 0           bn_p2out_bifpn_1[0][0]           
__________________________________________________________________________________________________
drop_p2out_bifpn_1 (SpatialDrop (None, 128, 128, 160 0           act_p2out_bifpn_1[0][0]          
__________________________________________________________________________________________________
resizing_3 (Resizing)           (None, 64, 64, 160)  0           drop_p2out_bifpn_1[0][0]         
__________________________________________________________________________________________________
se_dw_se_bu_p3_1 (DepthwiseConv (None, 64, 64, 160)  1600        drop_p3in_bifpn[0][0]            
__________________________________________________________________________________________________
se_dw_se_bu_p3td_1 (DepthwiseCo (None, 64, 64, 160)  1600        drop_p3td_bifpn_1[0][0]          
__________________________________________________________________________________________________
se_dw_se_bu_p2out_1 (DepthwiseC (None, 64, 64, 160)  1600        resizing_3[0][0]                 
__________________________________________________________________________________________________
se_bn_se_bu_p3_1 (BatchNormaliz (None, 64, 64, 160)  640         se_dw_se_bu_p3_1[0][0]           
__________________________________________________________________________________________________
se_bn_se_bu_p3td_1 (BatchNormal (None, 64, 64, 160)  640         se_dw_se_bu_p3td_1[0][0]         
__________________________________________________________________________________________________
se_bn_se_bu_p2out_1 (BatchNorma (None, 64, 64, 160)  640         se_dw_se_bu_p2out_1[0][0]        
__________________________________________________________________________________________________
se_act_se_bu_p3_1 (Activation)  (None, 64, 64, 160)  0           se_bn_se_bu_p3_1[0][0]           
__________________________________________________________________________________________________
se_act_se_bu_p3td_1 (Activation (None, 64, 64, 160)  0           se_bn_se_bu_p3td_1[0][0]         
__________________________________________________________________________________________________
se_act_se_bu_p2out_1 (Activatio (None, 64, 64, 160)  0           se_bn_se_bu_p2out_1[0][0]        
__________________________________________________________________________________________________
gap_se_bu_p3_1 (GlobalAveragePo (None, 160)          0           se_act_se_bu_p3_1[0][0]          
__________________________________________________________________________________________________
gap_se_bu_p3td_1 (GlobalAverage (None, 160)          0           se_act_se_bu_p3td_1[0][0]        
__________________________________________________________________________________________________
gap_se_bu_p2out_1 (GlobalAverag (None, 160)          0           se_act_se_bu_p2out_1[0][0]       
__________________________________________________________________________________________________
se_reshape_se_bu_p3_1 (Reshape) (None, 1, 1, 160)    0           gap_se_bu_p3_1[0][0]             
__________________________________________________________________________________________________
se_reshape_se_bu_p3td_1 (Reshap (None, 1, 1, 160)    0           gap_se_bu_p3td_1[0][0]           
__________________________________________________________________________________________________
se_reshape_se_bu_p2out_1 (Resha (None, 1, 1, 160)    0           gap_se_bu_p2out_1[0][0]          
__________________________________________________________________________________________________
fc1_se_bu_p3_1 (Dense)          (None, 1, 1, 20)     3220        se_reshape_se_bu_p3_1[0][0]      
__________________________________________________________________________________________________
fc1_se_bu_p3td_1 (Dense)        (None, 1, 1, 20)     3220        se_reshape_se_bu_p3td_1[0][0]    
__________________________________________________________________________________________________
fc1_se_bu_p2out_1 (Dense)       (None, 1, 1, 20)     3220        se_reshape_se_bu_p2out_1[0][0]   
__________________________________________________________________________________________________
fc2_se_bu_p3_1 (Dense)          (None, 1, 1, 160)    3360        fc1_se_bu_p3_1[0][0]             
__________________________________________________________________________________________________
fc2_se_bu_p3td_1 (Dense)        (None, 1, 1, 160)    3360        fc1_se_bu_p3td_1[0][0]           
__________________________________________________________________________________________________
fc2_se_bu_p2out_1 (Dense)       (None, 1, 1, 160)    3360        fc1_se_bu_p2out_1[0][0]          
__________________________________________________________________________________________________
mul_se_bu_p3_1 (Multiply)       (None, 64, 64, 160)  0           se_act_se_bu_p3_1[0][0]          
                                                                 fc2_se_bu_p3_1[0][0]             
__________________________________________________________________________________________________
mul_se_bu_p3td_1 (Multiply)     (None, 64, 64, 160)  0           se_act_se_bu_p3td_1[0][0]        
                                                                 fc2_se_bu_p3td_1[0][0]           
__________________________________________________________________________________________________
mul_se_bu_p2out_1 (Multiply)    (None, 64, 64, 160)  0           se_act_se_bu_p2out_1[0][0]       
                                                                 fc2_se_bu_p2out_1[0][0]          
__________________________________________________________________________________________________
add_p3p3tdp2out_1 (Add)         (None, 64, 64, 160)  0           mul_se_bu_p3_1[0][0]             
                                                                 mul_se_bu_p3td_1[0][0]           
                                                                 mul_se_bu_p2out_1[0][0]          
__________________________________________________________________________________________________
dw_p3out_bifpn_1 (DepthwiseConv (None, 64, 64, 160)  1600        add_p3p3tdp2out_1[0][0]          
__________________________________________________________________________________________________
bn_p3out_bifpn_1 (BatchNormaliz (None, 64, 64, 160)  640         dw_p3out_bifpn_1[0][0]           
__________________________________________________________________________________________________
act_p3out_bifpn_1 (Activation)  (None, 64, 64, 160)  0           bn_p3out_bifpn_1[0][0]           
__________________________________________________________________________________________________
drop_p3out_bifpn_1 (SpatialDrop (None, 64, 64, 160)  0           act_p3out_bifpn_1[0][0]          
__________________________________________________________________________________________________
resizing_4 (Resizing)           (None, 32, 32, 160)  0           drop_p3out_bifpn_1[0][0]         
__________________________________________________________________________________________________
se_dw_se_bu_p4_1 (DepthwiseConv (None, 32, 32, 160)  1600        drop_p4in_bifpn[0][0]            
__________________________________________________________________________________________________
se_dw_se_bu_p4td_1 (DepthwiseCo (None, 32, 32, 160)  1600        drop_p4td_bifpn_1[0][0]          
__________________________________________________________________________________________________
se_dw_se_bu_p3out_1 (DepthwiseC (None, 32, 32, 160)  1600        resizing_4[0][0]                 
__________________________________________________________________________________________________
se_bn_se_bu_p4_1 (BatchNormaliz (None, 32, 32, 160)  640         se_dw_se_bu_p4_1[0][0]           
__________________________________________________________________________________________________
se_bn_se_bu_p4td_1 (BatchNormal (None, 32, 32, 160)  640         se_dw_se_bu_p4td_1[0][0]         
__________________________________________________________________________________________________
se_bn_se_bu_p3out_1 (BatchNorma (None, 32, 32, 160)  640         se_dw_se_bu_p3out_1[0][0]        
__________________________________________________________________________________________________
se_act_se_bu_p4_1 (Activation)  (None, 32, 32, 160)  0           se_bn_se_bu_p4_1[0][0]           
__________________________________________________________________________________________________
se_act_se_bu_p4td_1 (Activation (None, 32, 32, 160)  0           se_bn_se_bu_p4td_1[0][0]         
__________________________________________________________________________________________________
se_act_se_bu_p3out_1 (Activatio (None, 32, 32, 160)  0           se_bn_se_bu_p3out_1[0][0]        
__________________________________________________________________________________________________
gap_se_bu_p4_1 (GlobalAveragePo (None, 160)          0           se_act_se_bu_p4_1[0][0]          
__________________________________________________________________________________________________
gap_se_bu_p4td_1 (GlobalAverage (None, 160)          0           se_act_se_bu_p4td_1[0][0]        
__________________________________________________________________________________________________
gap_se_bu_p3out_1 (GlobalAverag (None, 160)          0           se_act_se_bu_p3out_1[0][0]       
__________________________________________________________________________________________________
se_reshape_se_bu_p4_1 (Reshape) (None, 1, 1, 160)    0           gap_se_bu_p4_1[0][0]             
__________________________________________________________________________________________________
se_reshape_se_bu_p4td_1 (Reshap (None, 1, 1, 160)    0           gap_se_bu_p4td_1[0][0]           
__________________________________________________________________________________________________
se_reshape_se_bu_p3out_1 (Resha (None, 1, 1, 160)    0           gap_se_bu_p3out_1[0][0]          
__________________________________________________________________________________________________
fc1_se_bu_p4_1 (Dense)          (None, 1, 1, 20)     3220        se_reshape_se_bu_p4_1[0][0]      
__________________________________________________________________________________________________
fc1_se_bu_p4td_1 (Dense)        (None, 1, 1, 20)     3220        se_reshape_se_bu_p4td_1[0][0]    
__________________________________________________________________________________________________
fc1_se_bu_p3out_1 (Dense)       (None, 1, 1, 20)     3220        se_reshape_se_bu_p3out_1[0][0]   
__________________________________________________________________________________________________
fc2_se_bu_p4_1 (Dense)          (None, 1, 1, 160)    3360        fc1_se_bu_p4_1[0][0]             
__________________________________________________________________________________________________
fc2_se_bu_p4td_1 (Dense)        (None, 1, 1, 160)    3360        fc1_se_bu_p4td_1[0][0]           
__________________________________________________________________________________________________
fc2_se_bu_p3out_1 (Dense)       (None, 1, 1, 160)    3360        fc1_se_bu_p3out_1[0][0]          
__________________________________________________________________________________________________
mul_se_bu_p4_1 (Multiply)       (None, 32, 32, 160)  0           se_act_se_bu_p4_1[0][0]          
                                                                 fc2_se_bu_p4_1[0][0]             
__________________________________________________________________________________________________
mul_se_bu_p4td_1 (Multiply)     (None, 32, 32, 160)  0           se_act_se_bu_p4td_1[0][0]        
                                                                 fc2_se_bu_p4td_1[0][0]           
__________________________________________________________________________________________________
mul_se_bu_p3out_1 (Multiply)    (None, 32, 32, 160)  0           se_act_se_bu_p3out_1[0][0]       
                                                                 fc2_se_bu_p3out_1[0][0]          
__________________________________________________________________________________________________
add_p4p4tdp3out_1 (Add)         (None, 32, 32, 160)  0           mul_se_bu_p4_1[0][0]             
                                                                 mul_se_bu_p4td_1[0][0]           
                                                                 mul_se_bu_p3out_1[0][0]          
__________________________________________________________________________________________________
dw_p4out_bifpn_1 (DepthwiseConv (None, 32, 32, 160)  1600        add_p4p4tdp3out_1[0][0]          
__________________________________________________________________________________________________
bn_p4out_bifpn_1 (BatchNormaliz (None, 32, 32, 160)  640         dw_p4out_bifpn_1[0][0]           
__________________________________________________________________________________________________
act_p4out_bifpn_1 (Activation)  (None, 32, 32, 160)  0           bn_p4out_bifpn_1[0][0]           
__________________________________________________________________________________________________
drop_p4out_bifpn_1 (SpatialDrop (None, 32, 32, 160)  0           act_p4out_bifpn_1[0][0]          
__________________________________________________________________________________________________
se_dw_se_bu_p5_1 (DepthwiseConv (None, 32, 32, 160)  1600        drop_p5in_bifpn[0][0]            
__________________________________________________________________________________________________
se_dw_se_bu_p5td_1 (DepthwiseCo (None, 32, 32, 160)  1600        drop_p5td_bifpn_1[0][0]          
__________________________________________________________________________________________________
se_dw_se_bu_p4out_1 (DepthwiseC (None, 32, 32, 160)  1600        drop_p4out_bifpn_1[0][0]         
__________________________________________________________________________________________________
se_bn_se_bu_p5_1 (BatchNormaliz (None, 32, 32, 160)  640         se_dw_se_bu_p5_1[0][0]           
__________________________________________________________________________________________________
se_bn_se_bu_p5td_1 (BatchNormal (None, 32, 32, 160)  640         se_dw_se_bu_p5td_1[0][0]         
__________________________________________________________________________________________________
se_bn_se_bu_p4out_1 (BatchNorma (None, 32, 32, 160)  640         se_dw_se_bu_p4out_1[0][0]        
__________________________________________________________________________________________________
se_act_se_bu_p5_1 (Activation)  (None, 32, 32, 160)  0           se_bn_se_bu_p5_1[0][0]           
__________________________________________________________________________________________________
se_act_se_bu_p5td_1 (Activation (None, 32, 32, 160)  0           se_bn_se_bu_p5td_1[0][0]         
__________________________________________________________________________________________________
se_act_se_bu_p4out_1 (Activatio (None, 32, 32, 160)  0           se_bn_se_bu_p4out_1[0][0]        
__________________________________________________________________________________________________
gap_se_bu_p5_1 (GlobalAveragePo (None, 160)          0           se_act_se_bu_p5_1[0][0]          
__________________________________________________________________________________________________
gap_se_bu_p5td_1 (GlobalAverage (None, 160)          0           se_act_se_bu_p5td_1[0][0]        
__________________________________________________________________________________________________
gap_se_bu_p4out_1 (GlobalAverag (None, 160)          0           se_act_se_bu_p4out_1[0][0]       
__________________________________________________________________________________________________
se_reshape_se_bu_p5_1 (Reshape) (None, 1, 1, 160)    0           gap_se_bu_p5_1[0][0]             
__________________________________________________________________________________________________
se_reshape_se_bu_p5td_1 (Reshap (None, 1, 1, 160)    0           gap_se_bu_p5td_1[0][0]           
__________________________________________________________________________________________________
se_reshape_se_bu_p4out_1 (Resha (None, 1, 1, 160)    0           gap_se_bu_p4out_1[0][0]          
__________________________________________________________________________________________________
fc1_se_bu_p5_1 (Dense)          (None, 1, 1, 20)     3220        se_reshape_se_bu_p5_1[0][0]      
__________________________________________________________________________________________________
fc1_se_bu_p5td_1 (Dense)        (None, 1, 1, 20)     3220        se_reshape_se_bu_p5td_1[0][0]    
__________________________________________________________________________________________________
fc1_se_bu_p4out_1 (Dense)       (None, 1, 1, 20)     3220        se_reshape_se_bu_p4out_1[0][0]   
__________________________________________________________________________________________________
fc2_se_bu_p5_1 (Dense)          (None, 1, 1, 160)    3360        fc1_se_bu_p5_1[0][0]             
__________________________________________________________________________________________________
fc2_se_bu_p5td_1 (Dense)        (None, 1, 1, 160)    3360        fc1_se_bu_p5td_1[0][0]           
__________________________________________________________________________________________________
fc2_se_bu_p4out_1 (Dense)       (None, 1, 1, 160)    3360        fc1_se_bu_p4out_1[0][0]          
__________________________________________________________________________________________________
mul_se_bu_p5_1 (Multiply)       (None, 32, 32, 160)  0           se_act_se_bu_p5_1[0][0]          
                                                                 fc2_se_bu_p5_1[0][0]             
__________________________________________________________________________________________________
mul_se_bu_p5td_1 (Multiply)     (None, 32, 32, 160)  0           se_act_se_bu_p5td_1[0][0]        
                                                                 fc2_se_bu_p5td_1[0][0]           
__________________________________________________________________________________________________
mul_se_bu_p4out_1 (Multiply)    (None, 32, 32, 160)  0           se_act_se_bu_p4out_1[0][0]       
                                                                 fc2_se_bu_p4out_1[0][0]          
__________________________________________________________________________________________________
add_p5p5tdp4out_1 (Add)         (None, 32, 32, 160)  0           mul_se_bu_p5_1[0][0]             
                                                                 mul_se_bu_p5td_1[0][0]           
                                                                 mul_se_bu_p4out_1[0][0]          
__________________________________________________________________________________________________
dw_p5out_bifpn_1 (DepthwiseConv (None, 32, 32, 160)  1600        add_p5p5tdp4out_1[0][0]          
__________________________________________________________________________________________________
bn_p5out_bifpn_1 (BatchNormaliz (None, 32, 32, 160)  640         dw_p5out_bifpn_1[0][0]           
__________________________________________________________________________________________________
act_p5out_bifpn_1 (Activation)  (None, 32, 32, 160)  0           bn_p5out_bifpn_1[0][0]           
__________________________________________________________________________________________________
drop_p5out_bifpn_1 (SpatialDrop (None, 32, 32, 160)  0           act_p5out_bifpn_1[0][0]          
__________________________________________________________________________________________________
resizing_5 (Resizing)           (None, 16, 16, 160)  0           drop_p5out_bifpn_1[0][0]         
__________________________________________________________________________________________________
se_dw_se_bu_p6_1 (DepthwiseConv (None, 16, 16, 160)  1600        drop_p6in_bifpn[0][0]            
__________________________________________________________________________________________________
se_dw_se_bu_p6td_1 (DepthwiseCo (None, 16, 16, 160)  1600        drop_p6td_bifpn_1[0][0]          
__________________________________________________________________________________________________
se_dw_se_bu_p5out_1 (DepthwiseC (None, 16, 16, 160)  1600        resizing_5[0][0]                 
__________________________________________________________________________________________________
se_bn_se_bu_p6_1 (BatchNormaliz (None, 16, 16, 160)  640         se_dw_se_bu_p6_1[0][0]           
__________________________________________________________________________________________________
se_bn_se_bu_p6td_1 (BatchNormal (None, 16, 16, 160)  640         se_dw_se_bu_p6td_1[0][0]         
__________________________________________________________________________________________________
se_bn_se_bu_p5out_1 (BatchNorma (None, 16, 16, 160)  640         se_dw_se_bu_p5out_1[0][0]        
__________________________________________________________________________________________________
se_act_se_bu_p6_1 (Activation)  (None, 16, 16, 160)  0           se_bn_se_bu_p6_1[0][0]           
__________________________________________________________________________________________________
se_act_se_bu_p6td_1 (Activation (None, 16, 16, 160)  0           se_bn_se_bu_p6td_1[0][0]         
__________________________________________________________________________________________________
se_act_se_bu_p5out_1 (Activatio (None, 16, 16, 160)  0           se_bn_se_bu_p5out_1[0][0]        
__________________________________________________________________________________________________
gap_se_bu_p6_1 (GlobalAveragePo (None, 160)          0           se_act_se_bu_p6_1[0][0]          
__________________________________________________________________________________________________
gap_se_bu_p6td_1 (GlobalAverage (None, 160)          0           se_act_se_bu_p6td_1[0][0]        
__________________________________________________________________________________________________
gap_se_bu_p5out_1 (GlobalAverag (None, 160)          0           se_act_se_bu_p5out_1[0][0]       
__________________________________________________________________________________________________
se_reshape_se_bu_p6_1 (Reshape) (None, 1, 1, 160)    0           gap_se_bu_p6_1[0][0]             
__________________________________________________________________________________________________
se_reshape_se_bu_p6td_1 (Reshap (None, 1, 1, 160)    0           gap_se_bu_p6td_1[0][0]           
__________________________________________________________________________________________________
se_reshape_se_bu_p5out_1 (Resha (None, 1, 1, 160)    0           gap_se_bu_p5out_1[0][0]          
__________________________________________________________________________________________________
fc1_se_bu_p6_1 (Dense)          (None, 1, 1, 20)     3220        se_reshape_se_bu_p6_1[0][0]      
__________________________________________________________________________________________________
fc1_se_bu_p6td_1 (Dense)        (None, 1, 1, 20)     3220        se_reshape_se_bu_p6td_1[0][0]    
__________________________________________________________________________________________________
fc1_se_bu_p5out_1 (Dense)       (None, 1, 1, 20)     3220        se_reshape_se_bu_p5out_1[0][0]   
__________________________________________________________________________________________________
fc2_se_bu_p6_1 (Dense)          (None, 1, 1, 160)    3360        fc1_se_bu_p6_1[0][0]             
__________________________________________________________________________________________________
fc2_se_bu_p6td_1 (Dense)        (None, 1, 1, 160)    3360        fc1_se_bu_p6td_1[0][0]           
__________________________________________________________________________________________________
fc2_se_bu_p5out_1 (Dense)       (None, 1, 1, 160)    3360        fc1_se_bu_p5out_1[0][0]          
__________________________________________________________________________________________________
mul_se_bu_p6_1 (Multiply)       (None, 16, 16, 160)  0           se_act_se_bu_p6_1[0][0]          
                                                                 fc2_se_bu_p6_1[0][0]             
__________________________________________________________________________________________________
mul_se_bu_p6td_1 (Multiply)     (None, 16, 16, 160)  0           se_act_se_bu_p6td_1[0][0]        
                                                                 fc2_se_bu_p6td_1[0][0]           
__________________________________________________________________________________________________
mul_se_bu_p5out_1 (Multiply)    (None, 16, 16, 160)  0           se_act_se_bu_p5out_1[0][0]       
                                                                 fc2_se_bu_p5out_1[0][0]          
__________________________________________________________________________________________________
add_p6p6tdp5out_1 (Add)         (None, 16, 16, 160)  0           mul_se_bu_p6_1[0][0]             
                                                                 mul_se_bu_p6td_1[0][0]           
                                                                 mul_se_bu_p5out_1[0][0]          
__________________________________________________________________________________________________
dw_p6out_bifpn_1 (DepthwiseConv (None, 16, 16, 160)  1600        add_p6p6tdp5out_1[0][0]          
__________________________________________________________________________________________________
bn_p6out_bifpn_1 (BatchNormaliz (None, 16, 16, 160)  640         dw_p6out_bifpn_1[0][0]           
__________________________________________________________________________________________________
act_p6out_bifpn_1 (Activation)  (None, 16, 16, 160)  0           bn_p6out_bifpn_1[0][0]           
__________________________________________________________________________________________________
drop_p6out_bifpn_1 (SpatialDrop (None, 16, 16, 160)  0           act_p6out_bifpn_1[0][0]          
__________________________________________________________________________________________________
se_dw_se_bu_p7_1 (DepthwiseConv (None, 16, 16, 160)  1600        drop_p7in_bifpn[0][0]            
__________________________________________________________________________________________________
se_dw_se_bu_p6out_1 (DepthwiseC (None, 16, 16, 160)  1600        drop_p6out_bifpn_1[0][0]         
__________________________________________________________________________________________________
se_bn_se_bu_p7_1 (BatchNormaliz (None, 16, 16, 160)  640         se_dw_se_bu_p7_1[0][0]           
__________________________________________________________________________________________________
se_bn_se_bu_p6out_1 (BatchNorma (None, 16, 16, 160)  640         se_dw_se_bu_p6out_1[0][0]        
__________________________________________________________________________________________________
se_act_se_bu_p7_1 (Activation)  (None, 16, 16, 160)  0           se_bn_se_bu_p7_1[0][0]           
__________________________________________________________________________________________________
se_act_se_bu_p6out_1 (Activatio (None, 16, 16, 160)  0           se_bn_se_bu_p6out_1[0][0]        
__________________________________________________________________________________________________
gap_se_bu_p7_1 (GlobalAveragePo (None, 160)          0           se_act_se_bu_p7_1[0][0]          
__________________________________________________________________________________________________
gap_se_bu_p6out_1 (GlobalAverag (None, 160)          0           se_act_se_bu_p6out_1[0][0]       
__________________________________________________________________________________________________
se_reshape_se_bu_p7_1 (Reshape) (None, 1, 1, 160)    0           gap_se_bu_p7_1[0][0]             
__________________________________________________________________________________________________
se_reshape_se_bu_p6out_1 (Resha (None, 1, 1, 160)    0           gap_se_bu_p6out_1[0][0]          
__________________________________________________________________________________________________
fc1_se_bu_p7_1 (Dense)          (None, 1, 1, 20)     3220        se_reshape_se_bu_p7_1[0][0]      
__________________________________________________________________________________________________
fc1_se_bu_p6out_1 (Dense)       (None, 1, 1, 20)     3220        se_reshape_se_bu_p6out_1[0][0]   
__________________________________________________________________________________________________
fc2_se_bu_p7_1 (Dense)          (None, 1, 1, 160)    3360        fc1_se_bu_p7_1[0][0]             
__________________________________________________________________________________________________
fc2_se_bu_p6out_1 (Dense)       (None, 1, 1, 160)    3360        fc1_se_bu_p6out_1[0][0]          
__________________________________________________________________________________________________
mul_se_bu_p7_1 (Multiply)       (None, 16, 16, 160)  0           se_act_se_bu_p7_1[0][0]          
                                                                 fc2_se_bu_p7_1[0][0]             
__________________________________________________________________________________________________
mul_se_bu_p6out_1 (Multiply)    (None, 16, 16, 160)  0           se_act_se_bu_p6out_1[0][0]       
                                                                 fc2_se_bu_p6out_1[0][0]          
__________________________________________________________________________________________________
add_p7p6out_1 (Add)             (None, 16, 16, 160)  0           mul_se_bu_p7_1[0][0]             
                                                                 mul_se_bu_p6out_1[0][0]          
__________________________________________________________________________________________________
dw_p7out_bifpn_1 (DepthwiseConv (None, 16, 16, 160)  1600        add_p7p6out_1[0][0]              
__________________________________________________________________________________________________
bn_p7out_bifpn_1 (BatchNormaliz (None, 16, 16, 160)  640         dw_p7out_bifpn_1[0][0]           
__________________________________________________________________________________________________
act_p7out_bifpn_1 (Activation)  (None, 16, 16, 160)  0           bn_p7out_bifpn_1[0][0]           
…
fc2_se_seg_p6_out (Dense)       (None, 1, 1, 160)    3360        fc1_se_seg_p6_out[0][0]          
__________________________________________________________________________________________________
fc2_se_seg_p7_out (Dense)       (None, 1, 1, 160)    3360        fc1_se_seg_p7_out[0][0]          
__________________________________________________________________________________________________
mul_se_seg_p6_out (Multiply)    (None, 16, 16, 160)  0           se_act_se_seg_p6_out[0][0]       
                                                                 fc2_se_seg_p6_out[0][0]          
__________________________________________________________________________________________________
mul_se_seg_p7_out (Multiply)    (None, 16, 16, 160)  0           se_act_se_seg_p7_out[0][0]       
                                                                 fc2_se_seg_p7_out[0][0]          
__________________________________________________________________________________________________
add_p6p7_seg_out (Add)          (None, 16, 16, 160)  0           mul_se_seg_p6_out[0][0]          
                                                                 mul_se_seg_p7_out[0][0]          
__________________________________________________________________________________________________
dw_p6seg_bifpn_out (DepthwiseCo (None, 16, 16, 160)  1600        add_p6p7_seg_out[0][0]           
__________________________________________________________________________________________________
bn_p6seg_bifpn_out (BatchNormal (None, 16, 16, 160)  640         dw_p6seg_bifpn_out[0][0]         
__________________________________________________________________________________________________
act_p6seg_bifpn_out (Activation (None, 16, 16, 160)  0           bn_p6seg_bifpn_out[0][0]         
__________________________________________________________________________________________________
resizing_18 (Resizing)          (None, 32, 32, 160)  0           act_p6seg_bifpn_out[0][0]        
__________________________________________________________________________________________________
se_dw_se_inst_p7_out (Depthwise (None, 16, 16, 160)  1600        drop_p7out_bifpn_3[0][0]         
__________________________________________________________________________________________________
se_dw_se_p6seg_inst_out (Depthw (None, 16, 16, 160)  1600        act_p6seg_bifpn_out[0][0]        
__________________________________________________________________________________________________
se_dw_se_seg_p5_out (DepthwiseC (None, 32, 32, 160)  1600        drop_p5out_bifpn_3[0][0]         
__________________________________________________________________________________________________
se_dw_se_seg_p6seg_out (Depthwi (None, 32, 32, 160)  1600        resizing_18[0][0]                
__________________________________________________________________________________________________
se_bn_se_inst_p7_out (BatchNorm (None, 16, 16, 160)  640         se_dw_se_inst_p7_out[0][0]       
__________________________________________________________________________________________________
se_bn_se_p6seg_inst_out (BatchN (None, 16, 16, 160)  640         se_dw_se_p6seg_inst_out[0][0]    
__________________________________________________________________________________________________
se_bn_se_seg_p5_out (BatchNorma (None, 32, 32, 160)  640         se_dw_se_seg_p5_out[0][0]        
__________________________________________________________________________________________________
se_bn_se_seg_p6seg_out (BatchNo (None, 32, 32, 160)  640         se_dw_se_seg_p6seg_out[0][0]     
__________________________________________________________________________________________________
se_act_se_inst_p7_out (Activati (None, 16, 16, 160)  0           se_bn_se_inst_p7_out[0][0]       
__________________________________________________________________________________________________
se_act_se_p6seg_inst_out (Activ (None, 16, 16, 160)  0           se_bn_se_p6seg_inst_out[0][0]    
__________________________________________________________________________________________________
se_act_se_seg_p5_out (Activatio (None, 32, 32, 160)  0           se_bn_se_seg_p5_out[0][0]        
__________________________________________________________________________________________________
se_act_se_seg_p6seg_out (Activa (None, 32, 32, 160)  0           se_bn_se_seg_p6seg_out[0][0]     
__________________________________________________________________________________________________
gap_se_inst_p7_out (GlobalAvera (None, 160)          0           se_act_se_inst_p7_out[0][0]      
__________________________________________________________________________________________________
gap_se_p6seg_inst_out (GlobalAv (None, 160)          0           se_act_se_p6seg_inst_out[0][0]   
__________________________________________________________________________________________________
gap_se_seg_p5_out (GlobalAverag (None, 160)          0           se_act_se_seg_p5_out[0][0]       
__________________________________________________________________________________________________
gap_se_seg_p6seg_out (GlobalAve (None, 160)          0           se_act_se_seg_p6seg_out[0][0]    
__________________________________________________________________________________________________
se_reshape_se_inst_p7_out (Resh (None, 1, 1, 160)    0           gap_se_inst_p7_out[0][0]         
__________________________________________________________________________________________________
se_reshape_se_p6seg_inst_out (R (None, 1, 1, 160)    0           gap_se_p6seg_inst_out[0][0]      
__________________________________________________________________________________________________
se_reshape_se_seg_p5_out (Resha (None, 1, 1, 160)    0           gap_se_seg_p5_out[0][0]          
__________________________________________________________________________________________________
se_reshape_se_seg_p6seg_out (Re (None, 1, 1, 160)    0           gap_se_seg_p6seg_out[0][0]       
__________________________________________________________________________________________________
fc1_se_inst_p7_out (Dense)      (None, 1, 1, 20)     3220        se_reshape_se_inst_p7_out[0][0]  
__________________________________________________________________________________________________
fc1_se_p6seg_inst_out (Dense)   (None, 1, 1, 20)     3220        se_reshape_se_p6seg_inst_out[0][0
__________________________________________________________________________________________________
fc1_se_seg_p5_out (Dense)       (None, 1, 1, 20)     3220        se_reshape_se_seg_p5_out[0][0]   
__________________________________________________________________________________________________
fc1_se_seg_p6seg_out (Dense)    (None, 1, 1, 20)     3220        se_reshape_se_seg_p6seg_out[0][0]
__________________________________________________________________________________________________
fc2_se_inst_p7_out (Dense)      (None, 1, 1, 160)    3360        fc1_se_inst_p7_out[0][0]         
__________________________________________________________________________________________________
fc2_se_p6seg_inst_out (Dense)   (None, 1, 1, 160)    3360        fc1_se_p6seg_inst_out[0][0]      
__________________________________________________________________________________________________
fc2_se_seg_p5_out (Dense)       (None, 1, 1, 160)    3360        fc1_se_seg_p5_out[0][0]          
__________________________________________________________________________________________________
fc2_se_seg_p6seg_out (Dense)    (None, 1, 1, 160)    3360        fc1_se_seg_p6seg_out[0][0]       
__________________________________________________________________________________________________
mul_se_inst_p7_out (Multiply)   (None, 16, 16, 160)  0           se_act_se_inst_p7_out[0][0]      
                                                                 fc2_se_inst_p7_out[0][0]         
__________________________________________________________________________________________________
mul_se_p6seg_inst_out (Multiply (None, 16, 16, 160)  0           se_act_se_p6seg_inst_out[0][0]   
                                                                 fc2_se_p6seg_inst_out[0][0]      
__________________________________________________________________________________________________
mul_se_seg_p5_out (Multiply)    (None, 32, 32, 160)  0           se_act_se_seg_p5_out[0][0]       
                                                                 fc2_se_seg_p5_out[0][0]          
__________________________________________________________________________________________________
mul_se_seg_p6seg_out (Multiply) (None, 32, 32, 160)  0           se_act_se_seg_p6seg_out[0][0]    
                                                                 fc2_se_seg_p6seg_out[0][0]       
__________________________________________________________________________________________________
add_p6p7p6seg_inst_out (Add)    (None, 16, 16, 160)  0           mul_se_inst_p7_out[0][0]         
                                                                 mul_se_p6seg_inst_out[0][0]      
__________________________________________________________________________________________________
add_p5p6seg_out (Add)           (None, 32, 32, 160)  0           mul_se_seg_p5_out[0][0]          
                                                                 mul_se_seg_p6seg_out[0][0]       
__________________________________________________________________________________________________
dw_p6inst_bifpn_out (DepthwiseC (None, 16, 16, 160)  1600        add_p6p7p6seg_inst_out[0][0]     
__________________________________________________________________________________________________
dw_p5seg_bifpn_out (DepthwiseCo (None, 32, 32, 160)  1600        add_p5p6seg_out[0][0]            
__________________________________________________________________________________________________
bn_p6inst_bifpn_out (BatchNorma (None, 16, 16, 160)  640         dw_p6inst_bifpn_out[0][0]        
__________________________________________________________________________________________________
bn_p5seg_bifpn_out (BatchNormal (None, 32, 32, 160)  640         dw_p5seg_bifpn_out[0][0]         
__________________________________________________________________________________________________
act_p6inst_bifpn_out (Activatio (None, 16, 16, 160)  0           bn_p6inst_bifpn_out[0][0]        
__________________________________________________________________________________________________
act_p5seg_bifpn_out (Activation (None, 32, 32, 160)  0           bn_p5seg_bifpn_out[0][0]         
__________________________________________________________________________________________________
resizing_21 (Resizing)          (None, 32, 32, 160)  0           drop_p6out_bifpn_3[0][0]         
__________________________________________________________________________________________________
resizing_22 (Resizing)          (None, 32, 32, 160)  0           act_p6inst_bifpn_out[0][0]       
__________________________________________________________________________________________________
se_dw_se_seg_p4_out (DepthwiseC (None, 32, 32, 160)  1600        drop_p4out_bifpn_3[0][0]         
__________________________________________________________________________________________________
se_dw_se_seg_p5seg_out (Depthwi (None, 32, 32, 160)  1600        act_p5seg_bifpn_out[0][0]        
__________________________________________________________________________________________________
se_dw_se_inst_p6_out (Depthwise (None, 32, 32, 160)  1600        resizing_21[0][0]                
__________________________________________________________________________________________________
se_dw_se_inst_p6inst_out (Depth (None, 32, 32, 160)  1600        resizing_22[0][0]                
__________________________________________________________________________________________________
se_dw_se_p5seg_inst_out (Depthw (None, 32, 32, 160)  1600        act_p5seg_bifpn_out[0][0]        
__________________________________________________________________________________________________
se_bn_se_seg_p4_out (BatchNorma (None, 32, 32, 160)  640         se_dw_se_seg_p4_out[0][0]        
__________________________________________________________________________________________________
se_bn_se_seg_p5seg_out (BatchNo (None, 32, 32, 160)  640         se_dw_se_seg_p5seg_out[0][0]     
__________________________________________________________________________________________________
se_bn_se_inst_p6_out (BatchNorm (None, 32, 32, 160)  640         se_dw_se_inst_p6_out[0][0]       
__________________________________________________________________________________________________
se_bn_se_inst_p6inst_out (Batch (None, 32, 32, 160)  640         se_dw_se_inst_p6inst_out[0][0]   
__________________________________________________________________________________________________
se_bn_se_p5seg_inst_out (BatchN (None, 32, 32, 160)  640         se_dw_se_p5seg_inst_out[0][0]    
__________________________________________________________________________________________________
se_act_se_seg_p4_out (Activatio (None, 32, 32, 160)  0           se_bn_se_seg_p4_out[0][0]        
__________________________________________________________________________________________________
se_act_se_seg_p5seg_out (Activa (None, 32, 32, 160)  0           se_bn_se_seg_p5seg_out[0][0]     
__________________________________________________________________________________________________
se_act_se_inst_p6_out (Activati (None, 32, 32, 160)  0           se_bn_se_inst_p6_out[0][0]       
__________________________________________________________________________________________________
se_act_se_inst_p6inst_out (Acti (None, 32, 32, 160)  0           se_bn_se_inst_p6inst_out[0][0]   
__________________________________________________________________________________________________
se_act_se_p5seg_inst_out (Activ (None, 32, 32, 160)  0           se_bn_se_p5seg_inst_out[0][0]    
__________________________________________________________________________________________________
gap_se_seg_p4_out (GlobalAverag (None, 160)          0           se_act_se_seg_p4_out[0][0]       
__________________________________________________________________________________________________
gap_se_seg_p5seg_out (GlobalAve (None, 160)          0           se_act_se_seg_p5seg_out[0][0]    
__________________________________________________________________________________________________
gap_se_inst_p6_out (GlobalAvera (None, 160)          0           se_act_se_inst_p6_out[0][0]      
__________________________________________________________________________________________________
gap_se_inst_p6inst_out (GlobalA (None, 160)          0           se_act_se_inst_p6inst_out[0][0]  
__________________________________________________________________________________________________
gap_se_p5seg_inst_out (GlobalAv (None, 160)          0           se_act_se_p5seg_inst_out[0][0]   
__________________________________________________________________________________________________
se_reshape_se_seg_p4_out (Resha (None, 1, 1, 160)    0           gap_se_seg_p4_out[0][0]          
__________________________________________________________________________________________________
se_reshape_se_seg_p5seg_out (Re (None, 1, 1, 160)    0           gap_se_seg_p5seg_out[0][0]       
__________________________________________________________________________________________________
se_reshape_se_inst_p6_out (Resh (None, 1, 1, 160)    0           gap_se_inst_p6_out[0][0]         
__________________________________________________________________________________________________
se_reshape_se_inst_p6inst_out ( (None, 1, 1, 160)    0           gap_se_inst_p6inst_out[0][0]     
__________________________________________________________________________________________________
se_reshape_se_p5seg_inst_out (R (None, 1, 1, 160)    0           gap_se_p5seg_inst_out[0][0]      
__________________________________________________________________________________________________
fc1_se_seg_p4_out (Dense)       (None, 1, 1, 20)     3220        se_reshape_se_seg_p4_out[0][0]   
__________________________________________________________________________________________________
fc1_se_seg_p5seg_out (Dense)    (None, 1, 1, 20)     3220        se_reshape_se_seg_p5seg_out[0][0]
__________________________________________________________________________________________________
fc1_se_inst_p6_out (Dense)      (None, 1, 1, 20)     3220        se_reshape_se_inst_p6_out[0][0]  
__________________________________________________________________________________________________
fc1_se_inst_p6inst_out (Dense)  (None, 1, 1, 20)     3220        se_reshape_se_inst_p6inst_out[0][
__________________________________________________________________________________________________
fc1_se_p5seg_inst_out (Dense)   (None, 1, 1, 20)     3220        se_reshape_se_p5seg_inst_out[0][0
__________________________________________________________________________________________________
fc2_se_seg_p4_out (Dense)       (None, 1, 1, 160)    3360        fc1_se_seg_p4_out[0][0]          
__________________________________________________________________________________________________
fc2_se_seg_p5seg_out (Dense)    (None, 1, 1, 160)    3360        fc1_se_seg_p5seg_out[0][0]       
__________________________________________________________________________________________________
fc2_se_inst_p6_out (Dense)      (None, 1, 1, 160)    3360        fc1_se_inst_p6_out[0][0]         
__________________________________________________________________________________________________
fc2_se_inst_p6inst_out (Dense)  (None, 1, 1, 160)    3360        fc1_se_inst_p6inst_out[0][0]     
__________________________________________________________________________________________________
fc2_se_p5seg_inst_out (Dense)   (None, 1, 1, 160)    3360        fc1_se_p5seg_inst_out[0][0]      
__________________________________________________________________________________________________
mul_se_seg_p4_out (Multiply)    (None, 32, 32, 160)  0           se_act_se_seg_p4_out[0][0]       
                                                                 fc2_se_seg_p4_out[0][0]          
__________________________________________________________________________________________________
mul_se_seg_p5seg_out (Multiply) (None, 32, 32, 160)  0           se_act_se_seg_p5seg_out[0][0]    
                                                                 fc2_se_seg_p5seg_out[0][0]       
__________________________________________________________________________________________________
mul_se_inst_p6_out (Multiply)   (None, 32, 32, 160)  0           se_act_se_inst_p6_out[0][0]      
                                                                 fc2_se_inst_p6_out[0][0]         
__________________________________________________________________________________________________
mul_se_inst_p6inst_out (Multipl (None, 32, 32, 160)  0           se_act_se_inst_p6inst_out[0][0]  
                                                                 fc2_se_inst_p6inst_out[0][0]     
__________________________________________________________________________________________________
mul_se_p5seg_inst_out (Multiply (None, 32, 32, 160)  0           se_act_se_p5seg_inst_out[0][0]   
                                                                 fc2_se_p5seg_inst_out[0][0]      
__________________________________________________________________________________________________
add_p4p5seg_out (Add)           (None, 32, 32, 160)  0           mul_se_seg_p4_out[0][0]          
                                                                 mul_se_seg_p5seg_out[0][0]       
__________________________________________________________________________________________________
add_p5segp6p6inst_out (Add)     (None, 32, 32, 160)  0           mul_se_inst_p6_out[0][0]         
                                                                 mul_se_inst_p6inst_out[0][0]     
                                                                 mul_se_p5seg_inst_out[0][0]      
__________________________________________________________________________________________________
dw_p4seg_bifpn_out (DepthwiseCo (None, 32, 32, 160)  1600        add_p4p5seg_out[0][0]            
__________________________________________________________________________________________________
dw_p5inst_bifpn_out (DepthwiseC (None, 32, 32, 160)  1600        add_p5segp6p6inst_out[0][0]      
__________________________________________________________________________________________________
bn_p4seg_bifpn_out (BatchNormal (None, 32, 32, 160)  640         dw_p4seg_bifpn_out[0][0]         
__________________________________________________________________________________________________
bn_p5inst_bifpn_out (BatchNorma (None, 32, 32, 160)  640         dw_p5inst_bifpn_out[0][0]        
__________________________________________________________________________________________________
act_p4seg_bifpn_out (Activation (None, 32, 32, 160)  0           bn_p4seg_bifpn_out[0][0]         
__________________________________________________________________________________________________
act_p5inst_bifpn_out (Activatio (None, 32, 32, 160)  0           bn_p5inst_bifpn_out[0][0]        
__________________________________________________________________________________________________
resizing_19 (Resizing)          (None, 64, 64, 160)  0           act_p4seg_bifpn_out[0][0]        
__________________________________________________________________________________________________
se_dw_se_inst_p5_out (Depthwise (None, 32, 32, 160)  1600        drop_p5out_bifpn_3[0][0]         
__________________________________________________________________________________________________
se_dw_se_inst_p5inst_out (Depth (None, 32, 32, 160)  1600        act_p5inst_bifpn_out[0][0]       
__________________________________________________________________________________________________
se_dw_se_p4seg_inst_out (Depthw (None, 32, 32, 160)  1600        act_p4seg_bifpn_out[0][0]        
__________________________________________________________________________________________________
se_dw_se_seg_p3_out (DepthwiseC (None, 64, 64, 160)  1600        drop_p3out_bifpn_3[0][0]         
__________________________________________________________________________________________________
se_dw_se_seg_p4seg_out (Depthwi (None, 64, 64, 160)  1600        resizing_19[0][0]                
__________________________________________________________________________________________________
se_bn_se_inst_p5_out (BatchNorm (None, 32, 32, 160)  640         se_dw_se_inst_p5_out[0][0]       
__________________________________________________________________________________________________
se_bn_se_inst_p5inst_out (Batch (None, 32, 32, 160)  640         se_dw_se_inst_p5inst_out[0][0]   
__________________________________________________________________________________________________
se_bn_se_p4seg_inst_out (BatchN (None, 32, 32, 160)  640         se_dw_se_p4seg_inst_out[0][0]    
__________________________________________________________________________________________________
se_bn_se_seg_p3_out (BatchNorma (None, 64, 64, 160)  640         se_dw_se_seg_p3_out[0][0]        
__________________________________________________________________________________________________
se_bn_se_seg_p4seg_out (BatchNo (None, 64, 64, 160)  640         se_dw_se_seg_p4seg_out[0][0]     
__________________________________________________________________________________________________
se_act_se_inst_p5_out (Activati (None, 32, 32, 160)  0           se_bn_se_inst_p5_out[0][0]       
__________________________________________________________________________________________________
se_act_se_inst_p5inst_out (Acti (None, 32, 32, 160)  0           se_bn_se_inst_p5inst_out[0][0]   
__________________________________________________________________________________________________
se_act_se_p4seg_inst_out (Activ (None, 32, 32, 160)  0           se_bn_se_p4seg_inst_out[0][0]    
__________________________________________________________________________________________________
se_act_se_seg_p3_out (Activatio (None, 64, 64, 160)  0           se_bn_se_seg_p3_out[0][0]        
__________________________________________________________________________________________________
se_act_se_seg_p4seg_out (Activa (None, 64, 64, 160)  0           se_bn_se_seg_p4seg_out[0][0]     
__________________________________________________________________________________________________
gap_se_inst_p5_out (GlobalAvera (None, 160)          0           se_act_se_inst_p5_out[0][0]      
__________________________________________________________________________________________________
gap_se_inst_p5inst_out (GlobalA (None, 160)          0           se_act_se_inst_p5inst_out[0][0]  
__________________________________________________________________________________________________
gap_se_p4seg_inst_out (GlobalAv (None, 160)          0           se_act_se_p4seg_inst_out[0][0]   
__________________________________________________________________________________________________
gap_se_seg_p3_out (GlobalAverag (None, 160)          0           se_act_se_seg_p3_out[0][0]       
__________________________________________________________________________________________________
gap_se_seg_p4seg_out (GlobalAve (None, 160)          0           se_act_se_seg_p4seg_out[0][0]    
__________________________________________________________________________________________________
se_reshape_se_inst_p5_out (Resh (None, 1, 1, 160)    0           gap_se_inst_p5_out[0][0]         
__________________________________________________________________________________________________
se_reshape_se_inst_p5inst_out ( (None, 1, 1, 160)    0           gap_se_inst_p5inst_out[0][0]     
__________________________________________________________________________________________________
se_reshape_se_p4seg_inst_out (R (None, 1, 1, 160)    0           gap_se_p4seg_inst_out[0][0]      
__________________________________________________________________________________________________
se_reshape_se_seg_p3_out (Resha (None, 1, 1, 160)    0           gap_se_seg_p3_out[0][0]          
__________________________________________________________________________________________________
se_reshape_se_seg_p4seg_out (Re (None, 1, 1, 160)    0           gap_se_seg_p4seg_out[0][0]       
__________________________________________________________________________________________________
fc1_se_inst_p5_out (Dense)      (None, 1, 1, 20)     3220        se_reshape_se_inst_p5_out[0][0]  
__________________________________________________________________________________________________
fc1_se_inst_p5inst_out (Dense)  (None, 1, 1, 20)     3220        se_reshape_se_inst_p5inst_out[0][
__________________________________________________________________________________________________
fc1_se_p4seg_inst_out (Dense)   (None, 1, 1, 20)     3220        se_reshape_se_p4seg_inst_out[0][0
__________________________________________________________________________________________________
fc1_se_seg_p3_out (Dense)       (None, 1, 1, 20)     3220        se_reshape_se_seg_p3_out[0][0]   
__________________________________________________________________________________________________
fc1_se_seg_p4seg_out (Dense)    (None, 1, 1, 20)     3220        se_reshape_se_seg_p4seg_out[0][0]
__________________________________________________________________________________________________
fc2_se_inst_p5_out (Dense)      (None, 1, 1, 160)    3360        fc1_se_inst_p5_out[0][0]         
__________________________________________________________________________________________________
fc2_se_inst_p5inst_out (Dense)  (None, 1, 1, 160)    3360        fc1_se_inst_p5inst_out[0][0]     
__________________________________________________________________________________________________
fc2_se_p4seg_inst_out (Dense)   (None, 1, 1, 160)    3360        fc1_se_p4seg_inst_out[0][0]      
__________________________________________________________________________________________________
fc2_se_seg_p3_out (Dense)       (None, 1, 1, 160)    3360        fc1_se_seg_p3_out[0][0]          
__________________________________________________________________________________________________
fc2_se_seg_p4seg_out (Dense)    (None, 1, 1, 160)    3360        fc1_se_seg_p4seg_out[0][0]       
__________________________________________________________________________________________________
mul_se_inst_p5_out (Multiply)   (None, 32, 32, 160)  0           se_act_se_inst_p5_out[0][0]      
                                                                 fc2_se_inst_p5_out[0][0]         
__________________________________________________________________________________________________
mul_se_inst_p5inst_out (Multipl (None, 32, 32, 160)  0           se_act_se_inst_p5inst_out[0][0]  
                                                                 fc2_se_inst_p5inst_out[0][0]     
__________________________________________________________________________________________________
mul_se_p4seg_inst_out (Multiply (None, 32, 32, 160)  0           se_act_se_p4seg_inst_out[0][0]   
                                                                 fc2_se_p4seg_inst_out[0][0]      
__________________________________________________________________________________________________
mul_se_seg_p3_out (Multiply)    (None, 64, 64, 160)  0           se_act_se_seg_p3_out[0][0]       
                                                                 fc2_se_seg_p3_out[0][0]          
__________________________________________________________________________________________________
mul_se_seg_p4seg_out (Multiply) (None, 64, 64, 160)  0           se_act_se_seg_p4seg_out[0][0]    
                                                                 fc2_se_seg_p4seg_out[0][0]       
__________________________________________________________________________________________________
add_p4segp5p5inst_out (Add)     (None, 32, 32, 160)  0           mul_se_inst_p5_out[0][0]         
                                                                 mul_se_inst_p5inst_out[0][0]     
                                                                 mul_se_p4seg_inst_out[0][0]      
__________________________________________________________________________________________________
add_p3p4seg_out (Add)           (None, 64, 64, 160)  0           mul_se_seg_p3_out[0][0]          
                                                                 mul_se_seg_p4seg_out[0][0]       
__________________________________________________________________________________________________
dw_p4inst_bifpn_out (DepthwiseC (None, 32, 32, 160)  1600        add_p4segp5p5inst_out[0][0]      
__________________________________________________________________________________________________
dw_p3seg_bifpn_out (DepthwiseCo (None, 64, 64, 160)  1600        add_p3p4seg_out[0][0]            
__________________________________________________________________________________________________
bn_p4inst_bifpn_out (BatchNorma (None, 32, 32, 160)  640         dw_p4inst_bifpn_out[0][0]        
__________________________________________________________________________________________________
bn_p3seg_bifpn_out (BatchNormal (None, 64, 64, 160)  640         dw_p3seg_bifpn_out[0][0]         
__________________________________________________________________________________________________
act_p4inst_bifpn_out (Activatio (None, 32, 32, 160)  0           bn_p4inst_bifpn_out[0][0]        
__________________________________________________________________________________________________
act_p3seg_bifpn_out (Activation (None, 64, 64, 160)  0           bn_p3seg_bifpn_out[0][0]         
__________________________________________________________________________________________________
resizing_23 (Resizing)          (None, 64, 64, 160)  0           drop_p4out_bifpn_3[0][0]         
__________________________________________________________________________________________________
resizing_24 (Resizing)          (None, 64, 64, 160)  0           act_p4inst_bifpn_out[0][0]       
__________________________________________________________________________________________________
resizing_20 (Resizing)          (None, 128, 128, 160 0           act_p3seg_bifpn_out[0][0]        
__________________________________________________________________________________________________
se_dw_se_inst_p4_out (Depthwise (None, 64, 64, 160)  1600        resizing_23[0][0]                
__________________________________________________________________________________________________
se_dw_se_inst_p4inst_out (Depth (None, 64, 64, 160)  1600        resizing_24[0][0]                
__________________________________________________________________________________________________
se_dw_se_p3seg_inst_out (Depthw (None, 64, 64, 160)  1600        act_p3seg_bifpn_out[0][0]        
__________________________________________________________________________________________________
se_dw_se_seg_p2_out (DepthwiseC (None, 128, 128, 160 1600        drop_p2out_bifpn_3[0][0]         
__________________________________________________________________________________________________
se_dw_se_seg_p3seg_out (Depthwi (None, 128, 128, 160 1600        resizing_20[0][0]                
__________________________________________________________________________________________________
se_bn_se_inst_p4_out (BatchNorm (None, 64, 64, 160)  640         se_dw_se_inst_p4_out[0][0]       
__________________________________________________________________________________________________
se_bn_se_inst_p4inst_out (Batch (None, 64, 64, 160)  640         se_dw_se_inst_p4inst_out[0][0]   
__________________________________________________________________________________________________
se_bn_se_p3seg_inst_out (BatchN (None, 64, 64, 160)  640         se_dw_se_p3seg_inst_out[0][0]    
__________________________________________________________________________________________________
se_bn_se_seg_p2_out (BatchNorma (None, 128, 128, 160 640         se_dw_se_seg_p2_out[0][0]        
__________________________________________________________________________________________________
se_bn_se_seg_p3seg_out (BatchNo (None, 128, 128, 160 640         se_dw_se_seg_p3seg_out[0][0]     
__________________________________________________________________________________________________
se_act_se_inst_p4_out (Activati (None, 64, 64, 160)  0           se_bn_se_inst_p4_out[0][0]       
__________________________________________________________________________________________________
se_act_se_inst_p4inst_out (Acti (None, 64, 64, 160)  0           se_bn_se_inst_p4inst_out[0][0]   
__________________________________________________________________________________________________
se_act_se_p3seg_inst_out (Activ (None, 64, 64, 160)  0           se_bn_se_p3seg_inst_out[0][0]    
__________________________________________________________________________________________________
se_act_se_seg_p2_out (Activatio (None, 128, 128, 160 0           se_bn_se_seg_p2_out[0][0]        
__________________________________________________________________________________________________
se_act_se_seg_p3seg_out (Activa (None, 128, 128, 160 0           se_bn_se_seg_p3seg_out[0][0]     
__________________________________________________________________________________________________
gap_se_inst_p4_out (GlobalAvera (None, 160)          0           se_act_se_inst_p4_out[0][0]      
__________________________________________________________________________________________________
gap_se_inst_p4inst_out (GlobalA (None, 160)          0           se_act_se_inst_p4inst_out[0][0]  
__________________________________________________________________________________________________
gap_se_p3seg_inst_out (GlobalAv (None, 160)          0           se_act_se_p3seg_inst_out[0][0]   
__________________________________________________________________________________________________
gap_se_seg_p2_out (GlobalAverag (None, 160)          0           se_act_se_seg_p2_out[0][0]       
__________________________________________________________________________________________________
gap_se_seg_p3seg_out (GlobalAve (None, 160)          0           se_act_se_seg_p3seg_out[0][0]    
__________________________________________________________________________________________________
se_reshape_se_inst_p4_out (Resh (None, 1, 1, 160)    0           gap_se_inst_p4_out[0][0]         
__________________________________________________________________________________________________
se_reshape_se_inst_p4inst_out ( (None, 1, 1, 160)    0           gap_se_inst_p4inst_out[0][0]     
__________________________________________________________________________________________________
se_reshape_se_p3seg_inst_out (R (None, 1, 1, 160)    0           gap_se_p3seg_inst_out[0][0]      
__________________________________________________________________________________________________
se_reshape_se_seg_p2_out (Resha (None, 1, 1, 160)    0           gap_se_seg_p2_out[0][0]          
__________________________________________________________________________________________________
se_reshape_se_seg_p3seg_out (Re (None, 1, 1, 160)    0           gap_se_seg_p3seg_out[0][0]       
__________________________________________________________________________________________________
fc1_se_inst_p4_out (Dense)      (None, 1, 1, 20)     3220        se_reshape_se_inst_p4_out[0][0]  
__________________________________________________________________________________________________
fc1_se_inst_p4inst_out (Dense)  (None, 1, 1, 20)     3220        se_reshape_se_inst_p4inst_out[0][
__________________________________________________________________________________________________
fc1_se_p3seg_inst_out (Dense)   (None, 1, 1, 20)     3220        se_reshape_se_p3seg_inst_out[0][0
__________________________________________________________________________________________________
fc1_se_seg_p2_out (Dense)       (None, 1, 1, 20)     3220        se_reshape_se_seg_p2_out[0][0]   
__________________________________________________________________________________________________
fc1_se_seg_p3seg_out (Dense)    (None, 1, 1, 20)     3220        se_reshape_se_seg_p3seg_out[0][0]
__________________________________________________________________________________________________
fc2_se_inst_p4_out (Dense)      (None, 1, 1, 160)    3360        fc1_se_inst_p4_out[0][0]         
__________________________________________________________________________________________________
fc2_se_inst_p4inst_out (Dense)  (None, 1, 1, 160)    3360        fc1_se_inst_p4inst_out[0][0]     
__________________________________________________________________________________________________
fc2_se_p3seg_inst_out (Dense)   (None, 1, 1, 160)    3360        fc1_se_p3seg_inst_out[0][0]      
__________________________________________________________________________________________________
fc2_se_seg_p2_out (Dense)       (None, 1, 1, 160)    3360        fc1_se_seg_p2_out[0][0]          
__________________________________________________________________________________________________
fc2_se_seg_p3seg_out (Dense)    (None, 1, 1, 160)    3360        fc1_se_seg_p3seg_out[0][0]       
__________________________________________________________________________________________________
mul_se_inst_p4_out (Multiply)   (None, 64, 64, 160)  0           se_act_se_inst_p4_out[0][0]      
                                                                 fc2_se_inst_p4_out[0][0]         
__________________________________________________________________________________________________
mul_se_inst_p4inst_out (Multipl (None, 64, 64, 160)  0           se_act_se_inst_p4inst_out[0][0]  
                                                                 fc2_se_inst_p4inst_out[0][0]     
__________________________________________________________________________________________________
mul_se_p3seg_inst_out (Multiply (None, 64, 64, 160)  0           se_act_se_p3seg_inst_out[0][0]   
                                                                 fc2_se_p3seg_inst_out[0][0]      
__________________________________________________________________________________________________
mul_se_seg_p2_out (Multiply)    (None, 128, 128, 160 0           se_act_se_seg_p2_out[0][0]       
                                                                 fc2_se_seg_p2_out[0][0]          
__________________________________________________________________________________________________
mul_se_seg_p3seg_out (Multiply) (None, 128, 128, 160 0           se_act_se_seg_p3seg_out[0][0]    
                                                                 fc2_se_seg_p3seg_out[0][0]       
__________________________________________________________________________________________________
add_p3segp4p4inst_out (Add)     (None, 64, 64, 160)  0           mul_se_inst_p4_out[0][0]         
                                                                 mul_se_inst_p4inst_out[0][0]     
                                                                 mul_se_p3seg_inst_out[0][0]      
__________________________________________________________________________________________________
add_p2p3seg_out (Add)           (None, 128, 128, 160 0           mul_se_seg_p2_out[0][0]          
                                                                 mul_se_seg_p3seg_out[0][0]       
__________________________________________________________________________________________________
dw_p3inst_bifpn_out (DepthwiseC (None, 64, 64, 160)  1600        add_p3segp4p4inst_out[0][0]      
__________________________________________________________________________________________________
dw_p2segout_bifpn_out (Depthwis (None, 128, 128, 160 1600        add_p2p3seg_out[0][0]            
__________________________________________________________________________________________________
bn_p3inst_bifpn_out (BatchNorma (None, 64, 64, 160)  640         dw_p3inst_bifpn_out[0][0]        
__________________________________________________________________________________________________
bn_p2segout_bifpn_out (BatchNor (None, 128, 128, 160 640         dw_p2segout_bifpn_out[0][0]      
__________________________________________________________________________________________________
act_p3inst_bifpn_out (Activatio (None, 64, 64, 160)  0           bn_p3inst_bifpn_out[0][0]        
__________________________________________________________________________________________________
act_p2segout_bifpn_out (Activat (None, 128, 128, 160 0           bn_p2segout_bifpn_out[0][0]      
__________________________________________________________________________________________________
resizing_25 (Resizing)          (None, 128, 128, 160 0           drop_p3out_bifpn_3[0][0]         
…
se_act_se_inst_p3_out (Activati (None, 128, 128, 160 0           se_bn_se_inst_p3_out[0][0]       
__________________________________________________________________________________________________
se_act_se_inst_p3inst_out (Acti (None, 128, 128, 160 0           se_bn_se_inst_p3inst_out[0][0]   
__________________________________________________________________________________________________
se_act_se_p2seg_inst_out (Activ (None, 128, 128, 160 0           se_bn_se_p2seg_inst_out[0][0]    
__________________________________________________________________________________________________
gap_se_inst_p3_out (GlobalAvera (None, 160)          0           se_act_se_inst_p3_out[0][0]      
__________________________________________________________________________________________________
gap_se_inst_p3inst_out (GlobalA (None, 160)          0           se_act_se_inst_p3inst_out[0][0]  
__________________________________________________________________________________________________
gap_se_p2seg_inst_out (GlobalAv (None, 160)          0           se_act_se_p2seg_inst_out[0][0]   
__________________________________________________________________________________________________
se_reshape_se_inst_p3_out (Resh (None, 1, 1, 160)    0           gap_se_inst_p3_out[0][0]         
__________________________________________________________________________________________________
se_reshape_se_inst_p3inst_out ( (None, 1, 1, 160)    0           gap_se_inst_p3inst_out[0][0]     
__________________________________________________________________________________________________
se_reshape_se_p2seg_inst_out (R (None, 1, 1, 160)    0           gap_se_p2seg_inst_out[0][0]      
__________________________________________________________________________________________________
fc1_se_inst_p3_out (Dense)      (None, 1, 1, 20)     3220        se_reshape_se_inst_p3_out[0][0]  
__________________________________________________________________________________________________
fc1_se_inst_p3inst_out (Dense)  (None, 1, 1, 20)     3220        se_reshape_se_inst_p3inst_out[0][
__________________________________________________________________________________________________
fc1_se_p2seg_inst_out (Dense)   (None, 1, 1, 20)     3220        se_reshape_se_p2seg_inst_out[0][0
__________________________________________________________________________________________________
fc2_se_inst_p3_out (Dense)      (None, 1, 1, 160)    3360        fc1_se_inst_p3_out[0][0]         
__________________________________________________________________________________________________
fc2_se_inst_p3inst_out (Dense)  (None, 1, 1, 160)    3360        fc1_se_inst_p3inst_out[0][0]     
__________________________________________________________________________________________________
fc2_se_p2seg_inst_out (Dense)   (None, 1, 1, 160)    3360        fc1_se_p2seg_inst_out[0][0]      
__________________________________________________________________________________________________
mul_se_inst_p3_out (Multiply)   (None, 128, 128, 160 0           se_act_se_inst_p3_out[0][0]      
                                                                 fc2_se_inst_p3_out[0][0]         
__________________________________________________________________________________________________
…
act_p2instout_bifpn_out (Activa (None, 128, 128, 160 0           bn_p2instout_bifpn_out[0][0]     
__________________________________________________________________________________________________
up_sampling2d (UpSampling2D)    (None, 256, 256, 160 0           act_p2segout_bifpn_out[0][0]     
__________________________________________________________________________________________________
up_sampling2d_1 (UpSampling2D)  (None, 256, 256, 160 0           act_p2instout_bifpn_out[0][0]    
__________________________________________________________________________________________________
conv2d (Conv2D)                 (None, 256, 256, 6)  8646        up_sampling2d[0][0]              
__________________________________________________________________________________________________
conv2d_transpose (Conv2DTranspo (None, 256, 256, 6)  8646        act_p2segout_bifpn_out[0][0]     
__________________________________________________________________________________________________
conv2d_1 (Conv2D)               (None, 256, 256, 1)  1441        up_sampling2d_1[0][0]            
__________________________________________________________________________________________________
conv2d_transpose_1 (Conv2DTrans (None, 256, 256, 1)  1441        act_p2instout_bifpn_out[0][0]    
__________________________________________________________________________________________________
GAP_clf (GlobalAveragePooling2D (None, 160)          0           drop_p7in_bifpn[0][0]            
__________________________________________________________________________________________________
add (Add)                       (None, 256, 256, 6)  0           conv2d[0][0]                     
                                                                 conv2d_transpose[0][0]           
__________________________________________________________________________________________________
add_1 (Add)                     (None, 256, 256, 1)  0           conv2d_1[0][0]                   
                                                                 conv2d_transpose_1[0][0]         
__________________________________________________________________________________________________
dropout (Dropout)               (None, 160)          0           GAP_clf[0][0]                    
__________________________________________________________________________________________________
activation (Activation)         (None, 256, 256, 6)  0           add[0][0]                        
__________________________________________________________________________________________________
activation_1 (Activation)       (None, 256, 256, 1)  0           add_1[0][0]                      
__________________________________________________________________________________________________
clf_out (Dense)                 (None, 19)           3059        dropout[0][0]                    
__________________________________________________________________________________________________
seg_out (DepthwiseConv2D)       (None, 256, 256, 6)  60          activation[0][0]                 
__________________________________________________________________________________________________
inst_out (DepthwiseConv2D)      (None, 256, 256, 1)  10          activation_1[0][0]               
==================================================================================================
Total params: 22,130,108
Trainable params: 21,959,455
Non-trainable params: 170,653
__________________________________________________________________________________________________
None
